assignments/assignment_1/code/code/simple-2D-classifier/best-mlp.pth (torch, 9071 bytes, 15 tensors)

layers.0.weight f4 [16, 2]
0	0x3dfabf85	0.12243561
1	0xbf29d9e3	-0.66348094
2	0xbd6dfb65	-0.058101077
3	0x3ef32dc4	0.47495854
4	0x3e9d098b	0.30671343
5	0xbe8a1af3	-0.26973686
6	0xbf304f48	-0.68870974
7	0x3db6a4ca	0.0891815
8	0x3d74b92a	0.0597469
9	0xbd095fea	-0.033538736
10	0xbe3631fa	-0.17792502
11	0xbe427f77	-0.18993936
12	0x3f1250f2	0.5715476
13	0x3f03f68f	0.51548094
14	0x3e6e7437	0.2328652
15	0x3ef37c9c	0.47556007
16	0xbe8671eb	-0.26258788
17	0x3e48b20a	0.19599167
18	0x3f2eb1d6	0.68240106
19	0x3f20a2d6	0.6274847
20	0x3f00dda0	0.5033817
21	0x3e664a31	0.2248924
22	0x3f276f50	0.65404224
23	0xbe0db639	-0.13839044
24	0x3e875101	0.2642899
25	0x3ea2aec1	0.31773952
26	0xbea0f46c	-0.3143648
27	0xbf32a5ad	-0.6978405
28	0xbf529d3c	-0.8227117
29	0xbf0a906a	-0.5412661
30	0x3f19b5d9	0.600431
31	0xbb47ca02	-0.0030485396

layers.0.bias f4 [16]
0	0xbebe29bf	-0.37141225
1	0xbf016230	-0.5054045
2	0xbf467f65	-0.7753814
3	0xbe39c4d4	-0.1814149
4	0x3fcaf88f	1.5857104
5	0x3fb1f29e	1.3902166
6	0xbf4fa358	-0.8110862
7	0xbf720a3c	-0.94546866
8	0xbf091e43	-0.535618
9	0x3f5ccb0e	0.86247337
10	0xbf9f5152	-1.2446692
11	0x3e9ba007	0.3039553
12	0xbe85e706	-0.2615282
13	0x3e518678	0.20461452
14	0xbf69a5a1	-0.91268355
15	0xbe5e3f68	-0.21703875

layers.2.weight f4 [16, 16]
0	0xbe7b794e	-0.24557993
1	0xbe2870a0	-0.16449213
2	0xbe2aa425	-0.16664179
3	0x3de0e40e	0.10980998
4	0x3f5faa49	0.8736921
5	0x3c24f76b	0.010068755
6	0x3cfdd972	0.030987475
7	0xbea36ec0	-0.31920433
8	0xbc64cb0c	-0.013964426
9	0x3e77edd6	0.24211821
10	0xbf007434	-0.5017731
11	0xbd7fb6bc	-0.06243013
12	0x3e20348c	0.15645045
13	0x3d0f25f3	0.0349483
14	0x3d12fc2a	0.035885014
15	0x3d10c945	0.035348196
16	0x3eadd5c1	0.33952144
17	0x3ecff17b	0.40613922
18	0x3e9858d9	0.29755285
19	0x3e96a25b	0.29420742
20	0xbf246622	-0.6421834
21	0xbe9d9db9	-0.30784395
22	0x3e7d9d06	0.24766931
23	0x3eb93967	0.36176607
24	0x3ee0ee46	0.43931788
25	0xbe2ceb0d	-0.1688654
26	0x3e20fc33	0.15721206
27	0x3dfc3c60	0.12316203
28	0x3c1cae45	0.0095630335
29	0x3ddac94e	0.10682927
30	0x3ead6a2d	0.33870068
31	0x3e783591	0.24239184
32	0x3d126c30	0.035747707
33	0xbc8ff51c	-0.017572932
34	0x3f002bfa	0.500671
35	0xbd931c72	-0.0718316
36	0xbeae55b6	-0.34049767
37	0xbd40ecfa	-0.047101
38	0xbe12c546	-0.14333066
39	0x3e9fa35c	0.3117932
40	0x3e66edd3	0.2255166
41	0x3e4f4fb5	0.2024525
42	0x3e90e60b	0.2830051
43	0x3e3a6947	0.18204223
44	0x3db203bc	0.086921185
45	0x3e37ed57	0.17961632
46	0x3e91370f	0.2836232
47	0x3e395001	0.18096925
48	0x3d0f3cfa	0.03497026
49	0xbd7e4660	-0.062078834
50	0xbea35cc0	-0.319067
51	0xbe02c369	-0.12769856
52	0x3f19fcb3	0.60151213
53	0x3efce0c1	0.49390224
54	0xbe89eecf	-0.2694001
55	0xbd3616e4	-0.044455424
56	0xbe465d3c	-0.19371504
57	0x3e54bc19	0.20774879
58	0xbe44447f	-0.19166754
59	0x3e0181de	0.12647197
60	0xbd939937	-0.07206958
61	0xbda2d689	-0.079510756
62	0xbe0f08d9	-0.13968219
63	0xbe1f2290	-0.15540528
64	0x3e9d276b	0.30694136
65	0xbc0ab491	-0.008465902
66	0x3e9ac7a8	0.3023045
67	0x3d864bc7	0.06557422
68	0xbeaa2ac2	-0.33235747
69	0x3d8b3abf	0.06798314
70	0x3a2518d0	0.0006297948
71	0x3ed44594	0.41459334
72	0x3eb0bf99	0.34521177
73	0x3e281221	0.16413166
74	0x3dbd6578	0.09247869
75	0x3e701b4c	0.23447913
76	0x3e598210	0.21241021
77	0x3e32b98e	0.17453596
78	0x3e192fe7	0.1495968
79	0xbcef3cd2	-0.029203806
80	0x3ea2208d	0.3166546
81	0xbda91f24	-0.08257893
82	0x3f015ab5	0.5052903
83	0x3c4cc1a7	0.012497342
84	0xbede2af1	-0.43392137
85	0xbe6ff1af	-0.23432039
86	0x3d293305	0.04130842
87	0x3ec0fea0	0.37694263
88	0x3e7c4d9a	0.24638978
89	0x3cd861fc	0.02641391
90	0x3ea982dc	0.3310765
91	0x3dbb58e5	0.09147815
92	0x3e74bacb	0.23899381
93	0x3ec4db48	0.38448548
94	0x3e06395b	0.13107817
95	0xbe1d6457	-0.15370308
96	0x3e92e307	0.28688833
97	0x3e2d5f76	0.16930947
98	0x3f057796	0.521356
99	0x3e34b6ca	0.17647853
100	0xbedd309e	-0.43201154
101	0xbdbce91c	-0.092241496
102	0x3cf3aa6b	0.029744348
103	0x3ea3407e	0.3188514
104	0x3ebd8370	0.3701434
105	0x3e25f9a6	0.16208515
106	0x3e2bd080	0.16778755
107	0x3d28afff	0.041183468
108	0xbe62b9d6	-0.22141203
109	0x3e3133cb	0.17304914
110	0x3d98d9fa	0.07463451
111	0x3e057f39	0.13036813
112	0xbe7e0085	-0.24804886
113	0x3dc94117	0.09826868
114	0xbf1a2846	-0.602177
115	0xbe143204	-0.14472204
116	0x3f3e7a56	0.7440542
117	0x3ee9481c	0.45562828
118	0xbe6c47a7	-0.23074208
119	0xbe69101b	-0.2276005
120	0xbec8ee4d	-0.3924431
121	0x3e83778d	0.25677148
122	0xbea54c67	-0.32284853
123	0x3e698ede	0.22808406
124	0x3d49a2b5	0.049227435
125	0x3df32d2e	0.11873852
126	0xbe04e6fb	-0.12978737
127	0xbe0841d5	-0.13306363
128	0x3ea5645e	0.32303137
129	0x3edf6cee	0.43637794
130	0x3ec562b5	0.3855187
131	0x3eb4628d	0.35231438
132	0xbef2632d	-0.4734129
133	0xbea8877d	-0.3291587
134	0x3dcdd94d	0.100512125
135	0x3eff7864	0.49896538
136	0x3ed1e308	0.40993524
137	0xbaaefdf5	-0.0013350832
138	0x3e606df9	0.21916951
139	0x3bf132c2	0.007360787
140	0xbe09612d	-0.13415976
141	0x3e8cea3f	0.27522466
142	0x3e0ae3aa	0.1356341
143	0x3eaf5bd2	0.3424974
144	0xbe16c3e1	-0.1472316
145	0xbe97bd6c	-0.29636705
146	0xbf00c6d4	-0.5030339
147	0x3dc6823d	0.0969281
148	0x3f4d0df1	0.800994
149	0x3e7b2cfb	0.24528877
150	0x3e5c0117	0.2148479
151	0xbeb85f90	-0.36010408
152	0xbe956daf	-0.29185244
153	0x3e84293c	0.2581271
154	0xbedcab81	-0.43099597
155	0xbda9d980	-0.08293438
156	0xbe073399	-0.13203277
157	0x3dcfa1f4	0.10138312
158	0xbe44ac76	-0.19206414
159	0x3c42e635	0.011895706
160	0x3d8f0e74	0.069851786
161	0xbe05af52	-0.1305516
162	0xbd8d24a4	-0.06891754
163	0xbe4a7ae6	-0.19773445
164	0xbdb8db18	-0.09026164
165	0xbdb249dc	-0.08705494
166	0xbde9185a	-0.11381598
167	0x3e16b331	0.14716794
168	0xbd0c95ad	-0.03432243
169	0xbdffa4b1	-0.12482584
170	0x3e28f869	0.16501011
171	0xbe5df3be	-0.21675012
172	0x3e0610aa	0.13092294
173	0xbe0b0408	-0.13575757
174	0x3d810158	0.062990844
175	0x3e2a2c21	0.16618396
176	0x3f04bca6	0.51850355
177	0x3eae4ec0	0.34044456
178	0x3f3801ef	0.7187795
179	0x3e7fe8c8	0.24991143
180	0xbeeedf2f	-0.4665465
181	0xbe15b6d0	-0.14620519
182	0x3de98e7e	0.11404131
183	0x3dc040cf	0.09387361
184	0x3ef25b8f	0.4733548
185	0x3daff89c	0.0859234
186	0x3eac6944	0.3367406
187	0xbd6e216f	-0.058137354
188	0x3e04848a	0.12941185
189	0xbd0d97c4	-0.034568563
190	0x3e26aa11	0.16275813
191	0xbd5043fb	-0.05084608
192	0x3ca680f9	0.02032517
193	0xbd56ed18	-0.052472204
194	0xbe21e922	-0.1581159
195	0xbe4611b1	-0.19342686
196	0x3db487f9	0.08814997
197	0xbcedce21	-0.029028954
198	0x3ddaf690	0.10691559
199	0x3d9071a0	0.07052922
200	0x3e1dc6a0	0.154078
201	0xbe722f96	-0.23650965
202	0x3d6ffb28	0.05858913
203	0xbdbe41a2	-0.09289862
204	0x3e1dd890	0.15414643
205	0xbdc5227b	-0.09625717
206	0x3b6a6b49	0.0035769513
207	0xbdf76dff	-0.12081527
208	0x3ef25898	0.47333217
209	0x3eb956e8	0.36199117
210	0x3ed42a64	0.4143859
211	0x3d609819	0.05483255
212	0xbf222578	-0.6333842
213	0xbe4b88d6	-0.19876418
214	0xbd95da8c	-0.07317075
215	0x3e1cbb52	0.15305832
216	0x3f2611ab	0.6487071
217	0x3e5ac769	0.21365131
218	0x3e463522	0.19356206
219	0x3df24dd8	0.11831254
220	0xbd30cbc3	-0.043163072
221	0xbcf8cd8d	-0.030371452
222	0x3ecfea57	0.40608475
223	0x3d3d5011	0.046218935
224	0x3db7b24f	0.089695565
225	0x3ea2474d	0.31695023
226	0x3ed71bda	0.42013437
227	0x3e50cf83	0.2039166
228	0xbf2e35e7	-0.68051
229	0xbd83cd34	-0.06435624
230	0xbe143577	-0.1447352
231	0x3ea14f1f	0.31505677
232	0x3d7f949b	0.06239758
233	0x3db58e78	0.088650644
234	0x3e892d88	0.2679255
235	0x3e339387	0.17536746
236	0xbd4e23bc	-0.050327048
237	0x3e00f12d	0.12592001
238	0x3e4e0a48	0.2012111
239	0x3e028bce	0.12748644
240	0xbc013010	-0.007884994
241	0xbdf73141	-0.12069941
242	0x3e3df9dc	0.18552345
243	0x3dd9507b	0.106110536
244	0xbd813b8b	-0.06310185
245	0xbe40a9e3	-0.18814807
246	0xbe4561e8	-0.1927563
247	0x3dfdae58	0.12386769
248	0x3dd5316a	0.104098156
249	0xbcd79891	-0.026317867
250	0xbe38f229	-0.18061127
251	0xbe5a38ea	-0.21310773
252	0xbe2d1977	-0.16904245
253	0x3b197303	0.00234145
254	0xbd954139	-0.07287831
255	0x3e2fe750	0.17178082

layers.2.bias f4 [16]
0	0x3f2adac7	0.6674008
1	0xbf0b1b93	-0.5433895
2	0xbf3e557c	-0.7434919
3	0x3f5885c0	0.84579086
4	0xbf066872	-0.5250312
5	0xbf03b974	-0.51454854
6	0xbf38bac8	-0.72160006
7	0x3f46b374	0.77617574
8	0xbf87a202	-1.0596316
9	0x3f567a48	0.83780336
10	0x3dd55a7f	0.104176514
11	0xbf49fa6c	-0.7889774
12	0x3e1a8d63	0.15092997
13	0xbf48e870	-0.7847967
14	0xbec1400f	-0.37744185
15	0xbe0df691	-0.13863589

layers.4.weight f4 [1, 16]
0	0xbeba7c2f	-0.3642287
1	0x3ecc02ef	0.39845988
2	0x3ecbc23b	0.39796624
3	0xbf6fc2ef	-0.9365682
4	0x3ddab928	0.10679847
5	0x3f47be00	0.7802429
6	0x3eea3f9a	0.4575165
7	0xbf847a23	-1.0349773
8	0x3f1cbe3f	0.6122779
9	0xbf8fe5b7	-1.1241978
10	0xbd988f24	-0.07449177
11	0x3f2e21b5	0.6802018
12	0x3d621a4a	0.055200852
13	0x3f5bb72f	0.8582639
14	0x3f264955	0.64955646
15	0xbe0096da	-0.12557545

exp_avg f4 [16, 2]
0	0xbae9d5fb	-0.001784026
1	0xbacee7de	-0.0015785655
2	0xbc50daba	-0.012747461
3	0x3c240a3a	0.010012204
4	0xb9adab92	-0.0003312496
5	0xbb56305d	-0.0032682635
6	0xbc1235d4	-0.008923966
7	0x3be228f2	0.0069018537
8	0x3d562a95	0.052286703
9	0xbcc5dd4b	-0.024153372
10	0x3c98ea3b	0.018666377
11	0xbc58bcb6	-0.013228586
12	0xbae72e82	-0.0017637762
13	0x3af6c605	0.0018827325
14	0xbc2eb610	-0.010663524
15	0x3c2175e5	0.009854768
16	0xbcde186a	-0.02711125
17	0x3c8b5e5c	0.017012767
18	0x3b3103cd	0.0027010322
19	0xbb48cb38	-0.0030638706
20	0xbb95a38e	-0.0045666164
21	0xbb342340	-0.002748683
22	0xb93535fc	-0.00017281616
23	0xb9c0a581	-0.00036744404
24	0xb9789ee4	-0.00023710314
25	0xb9c8cc41	-0.00038299154
26	0xbb017231	-0.0019751901
27	0xb9b457c2	-0.0003439766
28	0xbc155735	-0.00911503
29	0x3b1a2836	0.0023522503
30	0xba2434ce	-0.0006263972
31	0xbade6978	-0.0016968688

exp_avg_sq f4 [16, 2]
0	0x3bb1dbc1	0.005427808
1	0x3ba9b5a9	0.0051791263
2	0x3b8b0c23	0.00424339
3	0x3b88cb76	0.004174645
4	0x3ca06a7f	0.019582031
5	0x3c6d777a	0.014493817
6	0x3aec55b4	0.0018030913
7	0x3ae11827	0.0017173336
8	0x3d95ee4c	0.07320842
9	0x3d878eca	0.06619032
10	0x3c299fe5	0.010353063
11	0x3c269a0d	0.0101685645
12	0x38e2a79d	0.0001080774
13	0x38cd9a40	9.803893e-05
14	0x3bd4312d	0.006475589
15	0x3bd86b4c	0.0066045877
16	0x3c4e948b	0.012608658
17	0x3c4a4b28	0.01234702
18	0x39a0d41c	0.00030675612
19	0x39b22922	0.00033981452
20	0x3bccb91b	0.006247652
21	0x3b5fc2ec	0.0034143282
22	0x38113bce	3.462639e-05
23	0x37db8d89	2.6172742e-05
24	0x387d3c41	6.0376016e-05
25	0x3845bbbd	4.7143305e-05
26	0x39936a62	0.00028117286
27	0x39b62d46	0.00034747476
28	0x3b99b4fb	0.004690764
29	0x3b6cc221	0.0036126452
30	0x39c14e4d	0.00036870167
31	0x3954d4df	0.00020297196

exp_avg f4 [16]
0	0x3a4c3f75	0.0007791438
1	0x3b2e93ba	0.0026638345
2	0x3a2ffeac	0.0006713669
3	0x3b0a64cd	0.002111721
4	0xbc3bb752	-0.011457281
5	0xbba8cfc3	-0.0051517203
6	0x39a378ef	0.00031179885
7	0x3ad940dd	0.0016575117
8	0x3bc9eea0	0.0061624795
9	0xba10f679	-0.00055298914
10	0xba1f0ff8	-0.0006067748
11	0xb60b7ce4	-2.078531e-06
12	0xb8962830	-7.160043e-05
13	0x3a1410f0	0.0005648276
14	0x3acd6f5d	0.0015673448
15	0x3818adf9	3.640165e-05

exp_avg_sq f4 [16]
0	0x39718531	0.00023033169
1	0x392a191e	0.0001622182
2	0x3a2b21c1	0.0006528162
3	0x3894fea1	7.104618e-05
4	0x3b41f2cd	0.0029594183
5	0x39e0be91	0.00042866592
6	0x36855e8c	3.9747156e-06
7	0x398617f0	0.00025576307
8	0x3a0469d1	0.0005051168
9	0x374f5ebb	1.2360218e-05
10	0x394e5994	0.00019679061
11	0x35befa74	1.4228995e-06
12	0x36220eb4	2.414844e-06
13	0x37533300	1.2588454e-05
14	0x393a752b	0.00017781991
15	0x373fbe89	1.142885e-05

exp_avg f4 [16, 16]
0	0xb8f94dc7	-0.000118877324
1	0xba7c622c	-0.0009627666
2	0xb7fb0d38	-2.9927687e-05
3	0xbb2c69d9	-0.0026308207
4	0xba8fe18a	-0.001097725
5	0xbac27aa4	-0.0014837575
6	0x39b73be6	0.00034949108
7	0xb947c748	-0.00019052357
8	0xba8a0200	-0.001052916
9	0xb983b52f	-0.0002512126
10	0x39aa28ad	0.00032455233
11	0x38ad5f37	8.267018e-05
12	0xb8287165	-4.0159928e-05
13	0xba477b84	-0.0007609653
14	0xbaa07ae1	-0.0012243652
15	0x394d6ab2	0.0001959007
16	0x388fb1ff	6.851926e-05
17	0x3a861c26	0.0010231778
18	0x36d50daf	6.3494876e-06
19	0x3b3b3d92	0.0028570634
20	0x3a926f06	0.0011172004
21	0x3acca90f	0.0015614348
22	0xb9dc255d	-0.00041989508
23	0x3948fb83	0.00019167182
24	0x3a95aab1	0.0011418668
25	0x3938e229	0.00017631859
26	0xb9c2bbe8	-0.00037142565
27	0xb9306afc	-0.00016824523
28	0x37ae9807	2.081321e-05
29	0x3a4b9967	0.0007766694
30	0x3aadd88c	0.0013263389
31	0xb9898d85	-0.00026236117
32	0x3905ff0d	0.00012778882
33	0xb93e0643	-0.00018122145
34	0x38096451	3.2756772e-05
35	0x3a804eb1	0.0009789077
36	0x39c7e928	0.00038129953
37	0x3a522b52	0.00080173195
38	0xba0f9e32	-0.000547859
39	0xb993721b	-0.0002812304
40	0x39852609	0.00025396075
41	0xba512301	-0.0007977933
42	0xb9baa228	-0.000355975
43	0xb8bf0e3c	-9.110241e-05
44	0xb999aacc	-0.00029309688
45	0x3a3b6600	0.0007148683
46	0x3a5830b5	0.0008247004
47	0xb96189f0	-0.00021509058
48	0xb9a0fb29	-0.00030704707
49	0xbb2288b2	-0.0024800715
50	0xb8a17ff0	-7.7009085e-05
51	0xbbde63ff	-0.006786823
52	0xbb39767a	-0.0028299377
53	0xbb7ade16	-0.0038279346
54	0x3a6c679e	0.0009018126
55	0xba002482	-0.00048882526
56	0xbb31f236	-0.0027152426
57	0xba286325	-0.0006423465
58	0x3a5b5ee9	0.000836833
59	0x395fe93a	0.00021353821
60	0xb8d5a6f3	-0.00010187728
61	0xbb00a1bb	-0.001962765
62	0xbb4f479d	-0.0031628378
63	0x3a047f86	0.0005054403
64	0x3813d7ac	3.524839e-05
65	0x3990fa13	0.0002765214
66	0x371443a6	8.837238e-06
67	0x3a4771f5	0.00076082285
68	0x39a5949d	0.00031581978
69	0x39e0f335	0.00042905813
70	0xb8d8631d	-0.00010318144
71	0x3868c15a	5.5493183e-05
72	0x399f9eb8	0.00030445098
73	0x3892fa42	7.008437e-05
74	0xb8c89ffb	-9.566542e-05
75	0xb7cc6cae	-2.4369303e-05
76	0x373e6289	1.13478245e-05
77	0x396b4cd5	0.00022439969
78	0x39bc3390	0.0003589657
79	0xb872494f	-5.776557e-05
80	0x398148c6	0.00024659018
81	0xb9c32dc7	-0.00037227405
82	0x386d8e66	5.6637822e-05
83	0x3afb3903	0.0019166771
84	0x3a3df18f	0.0007245773
85	0x3acd6026	0.0015668913
86	0xba8ff9fd	-0.0010984536
87	0xba14431c	-0.0005655752
88	0x3a01458a	0.00049313216
89	0xbad4bfce	-0.0016231479
90	0xba385691	-0.00070319424
91	0xb9575488	-0.00020535488
92	0xba1ad431	-0.0005906253
93	0x3ab83eef	0.0014056842
94	0x3ad46efb	0.0016207391
95	0xb9e754ec	-0.00044123025
96	0x3913f2f8	0.00014109525
97	0x3a9a1652	0.001175592
98	0x381ad2f1	3.6912916e-05
99	0x3b4f538c	0.0031635491
100	0x3aab0939	0.0013049013
101	0x3ae73063	0.0017638322
102	0xb9e8d764	-0.00044410967
103	0x3978304e	0.00023669118
104	0x3aa7a8b3	0.0012791365
105	0x399a5c51	0.0002944195
106	0xb9d70a87	-0.0004101584
107	0xb8e26380	-0.00010795053
108	0x3845737f	4.7076024e-05
109	0x3a6e2ac2	0.0009085351
110	0x3abdf6ba	0.0014493086
111	0xb9828b25	-0.00024899203
112	0xb9b22635	-0.00033979272
113	0xbb33c274	-0.0027429136
114	0xb8b29401	-8.515269e-05
115	0xbbf606af	-0.007508121
116	0xbb4d199c	-0.0031295782
117	0xbb8abf3a	-0.0042342218
118	0x3a82bffb	0.0009975428
119	0xba0d8ce0	-0.0005399715
120	0xbb44d9fb	-0.0030037153
121	0xba39c87b	-0.0007087064
122	0x3a729a40	0.00092545524
123	0x3977b2d7	0.00023622379
124	0xb8eb332a	-0.00011215203
125	0xbb0e4485	-0.0021708321
126	0xbb6560f8	-0.0035000425
127	0x3a128c9e	0.00055904116
128	0x38edcbe6	0.0001133902
129	0x3acfa78a	0.0015842777
130	0x37cfe6f0	2.4783862e-05
131	0x3b8d6ebc	0.004316179
132	0x3ae14c58	0.001718889
133	0x3b1a2e37	0.0023526081
134	0xba1e571b	-0.00060402014
135	0x39a58738	0.00031571998
136	0x3ae3b510	0.0017372686
137	0x39bf9096	0.00036538084
138	0xba119abd	-0.0005554369
139	0xb9594d66	-0.00020723566
140	0x3873f381	5.8162495e-05
141	0x3a97fdc0	0.0011596009
142	0x3b010230	0.0019685142
143	0xb9bf1eca	-0.00036453299
144	0xb9c172da	-0.000368974
145	0xbb435454	-0.0029804902
146	0xb8c1fb6f	-9.24979e-05
147	0xbc059e3f	-0.008155405
148	0xbb5ec2dc	-0.0033990657
149	0xbb96aed1	-0.0045984765
150	0x3a8dfb7b	0.0010832393
151	0xba19e841	-0.00058710953
152	0xbb55d963	-0.0032630793
153	0xba49f702	-0.00077043485
154	0x3a83bb58	0.001005034
155	0x3986792a	0.00025648746
156	0xb8fff23b	-0.000122044665
157	0xbb1a7e57	-0.002357384
158	0xbb791217	-0.0038005167
159	0x3a1f23ff	0.00060707325
160	0x00000000	0.0
161	0x00000004	6e-45
162	0x00000000	0.0
163	0x00000004	6e-45
164	0x00000000	0.0
165	0x00000000	0.0
166	0x00000004	6e-45
167	0x00000004	6e-45
168	0x00000004	6e-45
169	0x00000004	6e-45
170	0x00000004	6e-45
171	0x00000004	6e-45
172	0x00000004	6e-45
173	0x00000000	0.0
174	0x00000000	0.0
175	0x00000004	6e-45
176	0x39292569	0.00016131032
177	0x3aea5179	0.0017877064
178	0x381a6e24	3.6819038e-05
179	0x3b9e54e7	0.0048318985
180	0x3aff7c36	0.0019491974
181	0x3b2df92b	0.002654622
182	0xba30f076	-0.00067496987
183	0x39b74149	0.0003495312
184	0x3b000f9f	0.001954056
185	0x39d743b8	0.0004105845
186	0xba2236e7	-0.00061879907
187	0xb96331cc	-0.00021666958
188	0x38841e82	6.299933e-05
189	0x3aab1398	0.0013052104
190	0x3b0f0e86	0.0021828725
191	0xb9d419b0	-0.0004045493
192	0x00000004	6e-45
193	0x00000000	0.0
194	0x00000004	6e-45
195	0x00000004	6e-45
196	0x00000004	6e-45
197	0x00000004	6e-45
198	0x00000000	0.0
199	0x00000000	0.0
200	0x00000004	6e-45
201	0x00000000	0.0
202	0x00000000	0.0
203	0x00000004	6e-45
204	0x00000000	0.0
205	0x00000004	6e-45
206	0x00000004	6e-45
207	0x00000004	6e-45
208	0x39547b14	0.00020263746
209	0x3b10b7c9	0.00220822
210	0x384c7338	4.8744696e-05
211	0x3bc3138e	0.005953259
212	0x3b1dfdae	0.0024107504
213	0x3b568f88	0.003273936
214	0xba5ae258	-0.0008349768
215	0x39e8b268	0.0004438341
216	0x3b1dc243	0.0024072088
217	0x3a0e8d18	0.0005437895
218	0xba4a0358	-0.0007706187
219	0xb983298d	-0.00025017225
220	0x38b73c58	8.73736e-05
221	0x3ad75eec	0.0016431487
222	0x3b31f97e	0.0027156766
223	0xba0010a6	-0.00048852933
224	0x38f487bb	0.000116601084
225	0x3ad9922b	0.0016599348
226	0x38003768	3.056918e-05
227	0x3b965d59	0.0045887646
228	0x3aef70ec	0.0018267906
229	0x3b241d9a	0.0025042058
230	0xba28e2d0	-0.0006442489
231	0x39a9a209	0.00032354917
232	0x3af0ffdf	0.0018386802
233	0x39c6d489	0.00037923854
234	0xba18c006	-0.00058269536
235	0xb9500ae2	-0.0001984048
236	0x38689b6d	5.5457862e-05
237	0x3aa1f1a8	0.0012355344
238	0x3b0a4f25	0.0021104303
239	0xb9c130ce	-0.0003684819
240	0x80000004	-6e-45
241	0x347d768c	2.3605588e-07
242	0x00000000	0.0
243	0x34cbcc70	3.7960444e-07
244	0x33745a2f	5.68927e-08
245	0x33b3f283	8.37945e-08
246	0x00000004	6e-45
247	0x338142b9	6.0191674e-08
248	0x34534649	1.9676476e-07
249	0x3305ced7	3.1154595e-08
250	0x00000004	6e-45
251	0x00000000	0.0
252	0x3231a2d9	1.0339783e-08
253	0x00000004	6e-45
254	0x33ad2795	8.06314e-08
255	0x00000000	0.0

exp_avg_sq f4 [16, 16]
0	0x384bb3f1	4.8566555e-05
1	0x38211d91	3.8412927e-05
2	0x37263362	9.9063345e-06
3	0x39119de0	0.0001388709
4	0x3806078f	3.195513e-05
5	0x3872262a	5.773284e-05
6	0x38807d7a	6.1268875e-05
7	0x3798d773	1.8220138e-05
8	0x37b48a34	2.1522028e-05
9	0x3927a9ba	0.00015989589
10	0x379a3e03	1.8387107e-05
11	0x38ac73ce	8.2231694e-05
12	0x37b52f96	2.159904e-05
13	0x38d10661	9.967085e-05
14	0x390b1433	0.00013263598
15	0x38518f57	4.996298e-05
16	0x38de7b57	0.00010608759
17	0x3886296f	6.3973355e-05
18	0x3792dee1	1.7508342e-05
19	0x3981a999	0.00024731157
20	0x38781a26	5.915216e-05
21	0x38f9d8a2	0.00011913596
22	0x38fd5336	0.00012079479
23	0x380f0b14	3.4104174e-05
24	0x38129edb	3.495706e-05
25	0x399c8262	0.0002985178
26	0x380ff174	3.4318728e-05
27	0x392545ed	0.00015761676
28	0x3834f76e	4.314578e-05
29	0x395672f6	0.00020451457
30	0x3990ffcc	0.00027656404
31	0x38ca4bb4	9.6462114e-05
32	0x392edc32	0.00016675962
33	0x38233a0d	3.8916292e-05
34	0x37c93fc1	2.3990755e-05
35	0x38da8c43	0.00010421176
36	0x389b8042	7.414866e-05
37	0x3909e485	0.00013150468
38	0x39750425	0.00023366565
39	0x3882463a	6.211964e-05
40	0x36faeae5	7.477926e-06
41	0x3a024161	0.00049688487
42	0x388eb318	6.8044465e-05
43	0x3986e7cd	0.00025731177
44	0x38aa3e29	8.11781e-05
45	0x39999354	0.00029292202
46	0x39bb3651	0.00035707888
47	0x3933b081	0.00017136523
48	0x3a1018d5	0.00054968643
49	0x39c2022d	0.00037004185
50	0x38cd9794	9.8033954e-05
51	0x3aacade6	0.0013174384
52	0x39abc5a3	0.00032762912
53	0x3a1f0802	0.0006066562
54	0x3a41f257	0.0007398477
55	0x395a6939	0.00020829299
56	0x394c55cf	0.00019486922
57	0x3aecf591	0.0018078556
58	0x395b093e	0.0002088891
59	0x3a69f27e	0.0008924379
60	0x398aeb3b	0.00026496671
61	0x3a89bb7f	0.0010508149
62	0x3ab5b377	0.0013862689
63	0x3a0f671d	0.0005470382
64	0x37065ceb	8.008657e-06
65	0x369b46ad	4.6275877e-06
66	0x35a4b728	1.2272258e-06
67	0x3797d641	1.8100372e-05
68	0x36957f4c	4.4553653e-06
69	0x37179736	9.035508e-06
70	0x3733a446	1.0707479e-05
71	0x364e23e8	3.0717292e-06
72	0x3621fb2a	2.4137066e-06
73	0x37d037da	2.482154e-05
74	0x3655a463	3.183516e-06
75	0x37512a7e	1.2467264e-05
76	0x368a22e0	4.1167805e-06
77	0x37808fed	1.532581e-05
78	0x37b20470	2.122132e-05
79	0x370b42ff	8.300644e-06
80	0x3a02a371	0.0004983461
81	0x3908f6b9	0.00013061882
82	0x38b1d9ce	8.480587e-05
83	0x394551b0	0.00018817815
84	0x3962af3f	0.00021618324
85	0x398ded77	0.0002707054
86	0x3a50f06d	0.00079703965
87	0x395d70fe	0.00021118295
88	0x37887210	1.6265578e-05
89	0x3ae02eb7	0.0017103766
90	0x3971d70c	0.00023063662
91	0x3a614653	0.0008593548
92	0x398fb26a	0.00027408014
93	0x3a40411a	0.00073339196
94	0x3a3d65e7	0.00072249625
95	0x3a11bc48	0.0005559367
96	0x393b4712	0.00017860185
97	0x38d62795	0.00010211688
98	0x37e4168b	2.7190215e-05
99	0x39cd20c1	0.0003912505
100	0x38ca8347	9.656563e-05
101	0x394f1b0a	0.00019751131
102	0x3980bd64	0.0002455517
103	0x3890c2e6	6.902758e-05
104	0x385b7dd2	5.2330848e-05
105	0x3a13b52f	0.00056346034
106	0x3894cb33	7.095039e-05
107	0x3991618f	0.00027729242
108	0x38c193b3	9.230468e-05
109	0x39b078df	0.00033659392
110	0x39f354ad	0.0004641166
111	0x393e0517	0.00018121708
112	0x3a7fd994	0.00097598997
113	0x3a14c2d0	0.0005674781
114	0x391d3745	0.00014993276
115	0x3b0b93e9	0.0021297878
116	0x3a0d8c96	0.0005399672
117	0x3a8e654a	0.0010863927
118	0x3ab0e563	0.0013496097
119	0x39c38a31	0.0003729626
120	0x3997a182	0.00028921297
121	0x3b4d2ca5	0.0031307128
122	0x39c5cf08	0.00037729018
123	0x3ac57058	0.0015063388
124	0x3a0241fc	0.0004968939
125	0x3af1a7d6	0.001843686
126	0x3b24726d	0.0025092617
127	0x3a7a4e55	0.00095484155
128	0x393dce35	0.00018101263
129	0x39074be9	0.00012902882
130	0x3810894a	3.4460136e-05
131	0x39f118f3	0.0004598569
132	0x38e3abae	0.00010856181
133	0x3952bf76	0.00020098485
134	0x39678e9b	0.00022083001
135	0x3885a93a	6.373455e-05
136	0x38941e66	7.062852e-05
137	0x3a140d6d	0.00056477526
138	0x3885a7aa	6.373164e-05
139	0x3997b9f2	0.00028939504
140	0x38a01f59	7.6352335e-05
141	0x39ba4757	0.00035529837
142	0x39f52b47	0.00046762286
143	0x39360d7c	0.00017361896
144	0x3a67b52b	0.0008838947
145	0x3a1ec08d	0.0006055914
146	0x39229753	0.00015505897
147	0x3b10901a	0.0022058547
148	0x3a0af315	0.0005300504
149	0x3a870a8f	0.0010302829
150	0x3aa88b21	0.0012858846
151	0x39bb5f51	0.00035738436
152	0x39a59435	0.00031581675
153	0x3b4a6af2	0.0030886498
154	0x39ba2ee6	0.00035511627
155	0x3ac0a76e	0.0014698335
156	0x39f3454a	0.00046400196
157	0x3ae1ae82	0.0017218145
158	0x3b1932a5	0.0023376134
159	0x3a6d6efd	0.0009057371
160	0x00000000	0.0
161	0x32ca14d3	2.3525365e-08
162	0x00000000	0.0
163	0x2dcb45d7	2.3109443e-11
164	0x00000000	0.0
165	0x00000000	0.0
166	0x345508a5	1.9840316e-07
167	0x3386e859	6.282125e-08
168	0x2f044546	1.2029941e-10
169	0x349fb285	2.9745948e-07
170	0x33894169	6.391458e-08
171	0x33134dd3	3.4296885e-08
172	0x33b1d2e9	8.280569e-08
173	0x00000000	0.0
174	0x00000000	0.0
175	0x3357b5cc	5.022393e-08
176	0x39ace32d	0.00032975656
177	0x395c3fed	0.00021004649
178	0x386908a4	5.5559576e-05
179	0x3a471858	0.0007594875
180	0x393f3838	0.00018236123
181	0x39b97ea4	0.00035380304
182	0x39ee5ab3	0.00045462474
183	0x3905b580	0.00012751482
184	0x38e4a04a	0.000109017434
185	0x3a8db166	0.0010810315
186	0x3906cf4a	0.00012856457
187	0x3a0927aa	0.00052320457
188	0x392de65e	0.00016584384
189	0x3a217b03	0.0006159993
190	0x3a596eca	0.0008294402
191	0x39ab5d45	0.00032685153
192	0x322eb893	1.01701e-08
193	0x00000000	0.0
194	0x2566e150	2.0025659e-16
195	0x2ff56c6a	4.4642273e-10
196	0x3188fc35	3.9867936e-09
197	0x31a883b9	4.9044186e-09
198	0x00000000	0.0
199	0x00000000	0.0
200	0x2dd27ab4	2.3928727e-11
201	0x00000000	0.0
202	0x00000000	0.0
203	0x2f6d09b2	2.1558469e-10
204	0x00000000	0.0
205	0x328b84fe	1.6242208e-08
206	0x324672f2	1.1551252e-08
207	0x2e2bdace	3.9075236e-11
208	0x39f11877	0.0004598533
209	0x399d11a6	0.00029958523
210	0x38a5c4d1	7.904473e-05
211	0x3a93080c	0.0011217608
212	0x3986f22b	0.000257389
213	0x3a0adcd5	0.0005297189
214	0x3a09677e	0.0005241557
215	0x391d94fe	0.0001502819
216	0x392b905b	0.00016361607
217	0x3aaf5aea	0.0013378535
218	0x391a2dd3	0.00014703655
219	0x3a2f8904	0.0006696137
220	0x3944af71	0.00018757374
221	0x3a723130	0.0009238897
222	0x3aa39a5a	0.0012481913
223	0x39d0e14f	0.0003984072
224	0x39a04ee8	0.00030576368
225	0x3976e778	0.00023546617
226	0x385b5bbb	5.22991e-05
227	0x3a77a8bd	0.0009447446
228	0x393ac496	0.00017811576
229	0x39f1a090	0.0004608673
230	0x3a259b9a	0.0006317437
231	0x393bff8b	0.00017928907
232	0x38f6e7e8	0.0001177339
233	0x3ab7e287	0.0014029302
234	0x3941ae4a	0.00018470842
235	0x3a1c08d4	0.0005952243
236	0x39817fd6	0.00024700043
237	0x3a37e5ca	0.0007015137
238	0x3a8f05c8	0.0010911757
239	0x39d7f3df	0.00041189694
240	0x31e51776	6.6674444e-09
241	0x34fc8980	4.7038702e-07
242	0x00000000	0.0
243	0x376fc410	1.42911595e-05
244	0x31837f05	3.8270422e-09
245	0x36a24d05	4.8369425e-06
246	0x32bb838d	2.1829488e-08
247	0x3320f7ad	3.7478163e-08
248	0x35705683	8.953286e-07
249	0x355e7aab	8.287995e-07
250	0x2f78f050	2.2640845e-10
251	0x00000000	0.0
252	0x356dcf34	8.85909e-07
253	0x36140d69	2.2061524e-06
254	0x370d06b5	8.4058165e-06
255	0x00000000	0.0

exp_avg f4 [16]
0	0xba6a9988	-0.00089492695
1	0x3a738b6b	0.0009290489
2	0x399b3805	0.00029605642
3	0xbb17378a	-0.0023073875
4	0x39871b88	0.0002576972
5	0x3a147f23	0.0005664697
6	0x3a8bfa13	0.0010679386
7	0xbb273d6b	-0.0025518786
8	0x3aba64cd	0.0014220715
9	0xbb35a563	-0.0027716986
10	0x00000004	6e-45
11	0x3ad2a6d8	0.0016071452
12	0x00000004	6e-45
13	0x3b0216a9	0.0019849932
14	0x3ac5cf38	0.0015091663
15	0x338ef984	6.657777e-08

exp_avg_sq f4 [16]
0	0x3794fa64	1.7759572e-05
1	0x38177c1f	3.6116802e-05
2	0x383227a6	4.2475433e-05
3	0x3953aaae	0.00020186111
4	0x364e9268	3.0781612e-06
5	0x38e80ccc	0.00011065006
6	0x388bc559	6.6647954e-05
7	0x39c34d2b	0.00037250793
8	0x3880b9e1	6.138138e-05
9	0x39b4deaa	0.00034498173
10	0x3187fdde	3.9578785e-09
11	0x38f325b0	0.00011594163
12	0x310ab377	2.0183657e-09
13	0x391f5d18	0.00015198102
14	0x391492fc	0.00014169136
15	0x35241cb3	6.1136524e-07

exp_avg f4 [1, 16]
0	0x3ba6f13e	0.0050946763
1	0x3a8e2de0	0.0010847412
2	0xba6c2355	-0.00090079504
3	0x3b87e0a8	0.004146654
4	0x3a4218ae	0.000740419
5	0xba362a4c	-0.0006949052
6	0x39381983	0.00017557111
7	0x3b8d5b51	0.0043138643
8	0x3a155332	0.0005696296
9	0x3b8794c6	0.004137608
10	0x80000004	-6e-45
11	0x3a330943	0.0006829688
12	0x00000004	6e-45
13	0x3985fca5	0.00025555972
14	0x39ba7d39	0.00035569983
15	0xb2b920c7	-2.155174e-08

exp_avg_sq f4 [1, 16]
0	0x3a9b2d1e	0.0011839007
1	0x3b253dd6	0.002521386
2	0x3ace9351	0.0015760456
3	0x3a25cc55	0.00063246983
4	0x3b9e4cb5	0.0048309215
5	0x39f897a5	0.0004741523
6	0x3ab372ea	0.0013690863
7	0x3aa0b5b9	0.0012261189
8	0x3a88190f	0.0010383445
9	0x3a6d0ecd	0.0009043038
10	0x3224f914	9.60269e-09
11	0x3a89cf04	0.0010513966
12	0x2e324abb	4.0538888e-11
13	0x3a2ecf05	0.00066684216
14	0x3a487ea6	0.00076482666
15	0x35c07747	1.4339829e-06
