assignments/assignment_1/code/code/mnist-classifier/best-conv.pth (torch, 81245 bytes, 24 tensors)

layers.0.weight f4 [8, 1, 3, 3]
0.11203445 0.18365249 0.15041204 0.36649933 -0.6005972 0.044976886 0.08925946 -0.2978904
0.37416983 0.50048643 0.4729542 0.68389785 -0.49806893 -0.019186895 0.014539536 -0.40898788
-0.4082175 -0.33622515 -0.24262458 -0.47574732 -0.38150394 -0.016681917 -0.26474464 -0.20178501
0.3348809 0.5918311 0.6904588 0.2825106 -0.6948045 -0.510984 0.49608 0.4164185
0.23404044 -0.04807474 0.031177921 0.2298968 0.45801395 0.111171655 -0.7249895 0.44281474
0.30766755 -0.80377626 0.49379033 0.21418522 -0.28107172 0.028697405 0.27087638 0.55175674
0.91717833 0.29240575 -0.28398222 0.36852708 -0.6823326 -0.69379234 -0.5490393 -0.3122763
0.4183889 -0.3160262 -0.12413688 0.34788868 -0.30768633 0.30739442 0.4737681 0.7883605
0.36953622 -0.61467487 -0.16216817 0.6626856 0.12437803 -0.35120362 0.20873716 0.62947613
00000000: 5172 e53d 660f 3c3e 9d05 1a3e cda5 bb3e
00000010: bdc0 19bf af39 383d aacd b63d 1785 98be
00000020: 3093 bf3e e11f 003f 0e27 f23e ee13 2f3f
00000030: e402 ffbe d62d 9dbc 3c37 6e3c dc66 d1be
00000040: e201 d1be b425 acbe 9472 78be 2795 f3be
00000050: 7c54 c3be 84a8 88bc 9c8c 87be bba0 4ebe
00000060: 8275 ab3e 3e82 173f e8c1 303f 3ba5 903e
00000070: b5de 31bf d9cf 02bf 33fe fd3e ce34 d53e
00000080: 4ca8 6f3e 05ea 44bd d768 ff3c 116a 6b3e
00000090: ce80 ea3e f7ad e33d e998 39bf 9db8 e23e
000000a0: 9a86 9d3e 48c4 4dbf 16d2 fc3e 5f53 5b3e
000000b0: a2e8 8fbe d216 eb3c 4fb0 8a3e ee3f 0d3f
000000c0: 33cc 6a3f 35b6 953e 1e66 91be 95af bc3e
000000d0: 59ad 2ebf 609c 31bf d78d 0cbf aee2 9fbe
000000e0: 1237 d63e 30ce a1be 7a3b febd 771e b23e
000000f0: 1089 9dbe cd62 9d3e bb91 f23e fed1 493f
00000100: da33 bd3e 555b 1dbf 6a0f 26be c3a5 293f
00000110: e9b9 fe3d f6d0 b3be 32bf 553e 5925 213f

layers.0.bias f4 [8]
0.38121352 -0.1287066 -0.030849548 0.18221082 0.14371854 0.12726136 -0.3136965 -0.17163269
00000000: 6b2e c33e aacb 03be 31b8 fcbc 7995 3a3e
00000010: f42a 133e cd50 023e d49c a0be 7bc0 2fbe

layers.3.weight f4 [16, 8, 3, 3]
-0.18897271 -0.36028314 -0.04105915 -0.236295 -0.14692236 -0.43384302 0.17308556 0.08649465
-0.09824873 0.21802334 0.2650684 0.10871967 -0.36202568 -0.17046577 -0.16676778 -0.05185179
0.0077638393 -0.2970299 0.04067733 -0.13001914 -0.6771571 0.46460173 0.20065771 -0.050320882
0.2788105 0.29148948 0.50516194 -0.20441875 -0.41214338 -0.48342738 0.09968939 0.111733295
-0.068622075 0.2095823 0.18245661 0.44947913 -0.56724745 -0.46299094 -0.19276646 -0.17282103
0.085861355 0.22921497 0.26131427 0.20229816 0.2921873 -0.23733494 -0.15405123 -0.09393064
-0.114318855 -0.41903847 -0.81138223 0.42137623 0.069431394 -0.2395409 -0.47674367 -0.38782325
-0.046924416 0.06440653 -0.16776882 -0.221337 0.27183738 -0.07034773 0.040821355 -0.34180862
-0.045887843 -0.32944986 -0.24131703 0.04042413 0.12940672 0.14335458 0.15009919 0.36806962
-0.035104323 -0.013995311 -0.051831167 0.10707387 0.16738936 -0.15252069 -0.005188679 0.012478916
-0.038234565 -0.21344891 -0.15770397 0.11336844 -0.44867563 -0.39033997 0.13309658 -0.3752069
-0.048163567 -0.02062186 -0.12845886 -0.22340947 -0.21233381 -0.4953992 -0.17359169 0.075580224
-0.46199015 -0.0018106699 -0.04302901 -0.021083076 -0.17091267 -0.1342606 -0.2586939 0.010120662
-0.02928432 0.00028916955 0.16727327 0.043171134 0.032703746 0.1527198 -0.051341698 0.12714542
0.34922197 0.023831911 0.3545849 0.40351886 -0.06804126 0.118915476 0.25834033 0.060658347
-0.051010527 0.1748154 -0.118431255 -0.03655381 0.1973255 -0.074446805 0.17384972 -0.047798038
-0.3405318 0.25184396 -0.30837637 -0.17505196 0.3331838 -0.1310895 -0.037216984 -0.013809804
-0.011246177 -0.15037954 0.11690061 0.24598925 -0.24195032 0.0975105 0.19483358 -0.22948614
0.03971703 0.06461994 0.19606653 -0.095789276 0.04125151 0.013673592 -0.6177698 -0.45517713
-0.30162695 0.057256863 0.25025102 0.17983195 0.41452417 0.37036526 0.5241457 -0.108053416
0.03813505 0.2806918 -0.009887078 0.16396722 0.2401373 -0.3653418 -0.2602179 -0.07304712
-0.1346736 -0.04220684 0.1683436 0.055530798 -0.10070361 0.29663175 -0.26198387 -0.042318027
-0.14538634 -0.5048955 -0.24947925 -0.13516146 0.14298588 0.14467266 -0.015576653 -0.3109731
-0.527247 -0.39267626 -0.52288735 -0.8088346 -0.5081673 0.0906708 0.09984437 0.22426155
-0.22413032 -0.0011548575 0.40039098 -0.45290306 -0.23809247 -0.20850465 -0.18377435 0.4125621
0.35537443 -0.20568065 0.09304738 0.028522091 -0.18522343 -0.18895848 -0.1311334 -0.004162168
-0.16212106 0.10745609 -0.013629183 -0.24064167 -0.25144672 -0.65834343 -0.4518069 -0.28223386
-0.2470781 -0.035552632 0.02113838 -0.20813665 0.14066409 0.29769197 0.043267634 0.039084952
0.1454991 -0.27305785 -0.39354587 -0.2286066 -0.08313813 -0.35285679 -0.29505342 -0.4413019
-0.4673378 -0.0808115 -0.018216843 0.11365313 0.089231245 0.122401096 0.044016443 -0.1297052
0.109210595 -0.3278816 -0.02177931 -0.17478585 -0.23480457 -0.15472776 0.09211252 -0.056448717
-0.22392884 0.017439067 -0.1070958 -0.0018091438 0.10284288 -0.4717865 -0.0094599845 -0.08183041
00000000: 1082 41be 0877 b8be a42d 28bd 51f7 71be
00000010: d172 16be ac20 debe 573d 313e 1b24 b13d
00000020: a136 c9bd 8341 5f3e 0cb7 873e 6ba8 de3d
00000030: 6e5b b9be 948e 2ebe 2cc5 2abe 8b62 54bd
00000040: ce67 fe3b 4e14 98be 469d 263d bd23 05be
00000050: 2b5a 2dbf 47e0 ed3e 3779 4d3e 451d 4ebd
00000060: 40c0 8e3e 1c3e 953e 4b52 013f 2653 51be
00000070: 7504 d3be cb83 f7be f329 cc3d 6dd4 e43d
00000080: bb89 8cbd be9c 563e e8d5 3a3e 2122 e63e
00000090: 2137 11bf 260d edbe 9264 45be fff7 30be
000000a0: 14d8 af3d 54b7 6a3e fcca 853e 4027 4f3e
000000b0: 9399 953e ee07 73be 9bbf 1dbe b55e c0bd
000000c0: 0120 eabd 368c d6be bfb6 4fbf a0be d73e
000000d0: 0c32 8e3d 364a 75be bf17 f4be c590 c6be
000000e0: d133 40bd 92e7 833d 97cb 2bbe 2ba6 62be
000000f0: 452e 8b3e 7812 90bd 4b34 273d 8a01 afbe
00000100: e4f4 3bbd a7ad a8be d01b 77be c693 253d
00000110: 3283 043e 8bcb 123e 9ab3 193e 9f73 bc3e
00000120: 8dc9 0fbd 974c 65bc eb4c 54bd 8c49 db3d
00000130: 1e68 2b3e 622e 1cbe cb05 aabb 5e74 4c3c
00000140: d99b 1cbd 5a92 5abe 267d 21be b62d e83d
00000150: d0b8 e5be a4da c7be 784a 083e 1e1b c0be
00000160: 2947 45bd 2def a8bc b88a 03be 74c5 64be
00000170: 096e 59be f7a4 fdbe 05c2 31be cec9 9a3d
00000180: f989 ecbe 0054 edba 303f 30bd 6ab6 acbc
00000190: bb03 2fbe 9c7b 09be 8773 84be 22d1 253c
000001a0: ace5 efbc ae9b 9739 af49 2b3e 37d4 303d
000001b0: 5df4 053d 9462 1c3e ac4b 52bd 6932 023e
000001c0: 39cd b23e 243b c33c 278c b53e 069a ce3e
000001d0: 3759 8bbd f589 f33d 2f45 843e e374 783d
000001e0: 6af0 50bd cf02 333e 168c f2bd 73b9 15bd
000001f0: b20f 4a3e 9177 98bd a905 323e e0c7 43bd
00000200: 2f5a aebe b1f1 803e 82e3 9dbe d240 33be
00000210: 1197 aa3e 533c 06be d670 18bd 8442 62bc
00000220: e341 38bc 18fd 19be 9669 ef3d 9be4 7b3e
00000230: d3c1 77be 96b3 c73d 7482 473e 6afe 6abe
00000240: 53ae 223d 7657 843d aac5 483e 2b2d c4bd
00000250: 58f7 283d 3407 603c 2926 1ebf fa0c e9be
00000260: d96e 9abe 2c86 6a3d e720 803e de25 383e
00000270: 833c d43e 84a0 bd3e 6a2e 063f 1c4b ddbd
00000280: 8033 1c3d d6b6 8f3e 69fd 21bc 06e7 273e
00000290: 8de6 753e 150e bbbe 483b 85be ba99 95bd
000002a0: e0e7 09be 14e1 2cbd 4462 2c3e 4374 633d
000002b0: b23d cebd 1ee0 973e c022 86be ab55 2dbd
000002c0: 28e0 14be d540 01bf 7d77 7fbe c467 0abe
000002d0: e46a 123e 1225 143e 3835 7fbc de37 9fbe
000002e0: a9f9 06bf dd0c c9be f2db 05bf c90f 4fbf
000002f0: 4117 02bf 9db1 b93d 347b cc3d d2a4 653e
00000300: 6b82 65be 965e 97ba 0c00 cd3e e9e2 e7be
00000310: 83ce 73be 3e82 55be 582f 3cbe 573b d33e
00000320: a3f3 b53e f39d 52be a08f be3d 29a7 e93c
00000330: 36ab 3dbe 557e 41be d647 06be cc62 88bb
00000340: 1003 26be f011 dc3d f04c 5fbc c56a 76be
00000350: a0bd 80be 3289 28bf 3c53 e7be f580 90be
00000360: 0b02 7dbe a39f 11bd 652a ad3c c621 55be
00000370: 3f0a 103e 156b 983e 6739 313d 8b17 203d
00000380: b7fd 143e 3dce 8bbe d87e c9be d917 6abe
00000390: 5344 aabd a5a9 b4be 3e11 97be 53f2 e1be
000003a0: e646 efbe 8080 a5bd 7d3b 95bc f9c2 e83d
000003b0: dfbe b63d 6dad fa3d 964a 343d 71d1 04be
000003c0: cea9 df3d 19e0 a7be 866a b2bc 10fb 32be
000003d0: 9c70 70be f470 1ebe 7da5 bc3d c536 67bd
000003e0: 9a4d 65be 60dc 8e3c 0b55 dbbd cb20 edba
000003f0: 4a9f d23d 008e f1be 0dfe 1abc b496 a7bd

layers.3.bias f4 [16]
0.20017289 -0.1119578 -0.008297717 -0.03714676 -0.7239848 -0.081731424 -0.16399644 0.080357805
-0.28400669 -0.35504463 0.008936371 -0.49134856 -0.016501939 -0.04025228 -0.37304085 -0.5025982
00000000: 1ffa 4c3e 224a e5bd 26f3 07bc 3327 18bd
00000010: 1157 39bf ce62 a7bd afee 27be a292 a43d
00000020: 5369 91be 69c8 b5be db69 123c 0a92 fbbe
00000030: 132f 87bc 93df 24bd 36ff bebe 47aa 00bf

layers.6.weight f4 [32, 16, 3, 3]
-0.18051259 -0.12926583 -0.20646589 -0.39650717 -0.06724653 0.094704375 0.104100265 -0.11397228
-0.45624298 0.17322041 0.17059661 -0.033310495 -0.0346849 0.025395423 7.162692e-05 -0.2689099
0.011346069 0.2647368 -0.17824923 0.00018695346 -0.07120038 0.06610649 0.12595366 -0.37987643
0.099255376 -0.044516817 -0.6051871 -0.1890445 -0.031353835 -0.10328636 0.07279329 -0.3607814
-0.6456641 -0.058685485 0.2259568 -0.1545449 0.15936108 0.1525897 0.2539002 0.12605463
0.18849236 -0.09992355 0.021807853 -0.23774436 -0.548205 0.10555997 0.08952642 0.14150035
-0.108927265 0.034975197 -0.03593771 -0.18568611 0.17518038 0.15520565 0.1861671 0.09317447
-0.02318277 0.04041602 0.06927713 0.028054498 0.1765744 0.058493547 -0.19009323 -0.106255785
0.054883 -0.04050657 -0.025356542 -0.11517795 -0.5394182 0.096986726 0.0598029 -0.3429026
0.14580342 0.14735098 -0.101158574 0.044364482 -0.03457099 -0.5406108 0.16984709 0.3209572
0.023398234 0.054941233 0.21250102 0.1730926 0.12700011 0.05439918 -0.10818403 -0.09620734
-0.40586123 -0.4293083 0.001867842 0.2836247 0.49683556 -0.1199667 -0.26741982 -0.20819636
0.05177802 0.067034416 -0.09788151 0.0034075952 0.17709433 -0.11749824 0.076913215 -0.19305752
-0.74624026 0.073467754 0.35422575 0.40294957 0.22851552 0.0899713 -0.19722304 0.29446575
-0.047083158 0.026330292 -0.17656636 0.07206104 0.24222222 -0.031162633 0.0043548876 -0.15065035
-0.13795722 0.036770515 0.1611482 -0.0968813 -0.08302439 0.08320367 0.06729308 -0.05671762
0.032272633 0.12117773 0.007242466 0.12849055 0.17078482 0.029068556 -0.5180324 0.073776565
-0.08000412 -0.05294214 -0.113453485 -0.06656317 0.035067216 0.18628514 0.049237568 -0.19494529
-0.07291067 0.108256675 0.042367596 0.13966589 0.2263387 0.30500942 0.12058879 -0.09963266
-0.14796284 -0.121143855 -0.07523863 -0.08731574 -0.047798917 -0.03101298 -0.025630487 -0.2671289
0.19803376 0.153228 0.25521144 0.0753957 0.23068596 -0.08981639 -0.18506259 -0.38764888
-0.22601315 -0.20977627 -0.33196718 -0.019820478 -0.27833775 -0.52497077 -0.059262153 -0.17093483
-0.3001718 0.08678431 0.18121314 -0.20029098 0.14286286 0.17115387 0.05249045 0.11919905
0.054212198 -0.2523449 0.2058896 0.15608016 -0.039323047 -0.07262029 -0.2336537 -0.14787395
0.011338192 -0.038715903 -0.0104570305 -0.1042983 -0.01012215 0.1105097 0.22955404 0.27067116
0.15624829 0.0478772 0.19336699 -0.16314779 0.046227727 0.015527998 -0.114530325 -0.0025269422
0.017487021 0.16104117 0.24598469 -0.10004739 -0.33647266 -0.17983124 0.05413107 -0.18834019
0.02353018 -0.013347299 0.034806833 0.15895288 0.13596666 -0.40271178 0.010544573 0.15394345
-0.033442 0.043021366 0.029318122 -0.33714166 -0.05908681 -0.006199828 -0.16043058 -0.098039016
-0.13701424 -0.0083891405 0.21681857 0.26290905 0.24270213 0.106582284 0.044540197 -0.02112096
-0.050350856 0.21912046 0.0832407 -0.046928167 -0.27610007 -0.5781976 -0.023630962 -0.107407816
-0.39889345 0.31509128 0.18835251 -0.17128062 -0.010951509 -0.13671482 -0.3085839 -0.058743265
00000000: 4bd8 38be 435e 04be cb6b 53be fd02 cbbe
00000010: 8cb8 89bd 5ef4 c13d 8532 d53d 4c6a e9bd
00000020: ae98 e9be b160 313e e1b0 2e3e 9670 08bd
00000030: c111 0ebd 100a d03c 6936 9638 8fae 89be
00000040: dde4 393c 958b 873e f786 36be f008 4439
00000050: 81d1 91bd d762 873d fff9 003e 2a7f c2be
00000060: 6746 cb3d 4457 36bd 8bed 1abf e294 41be
00000070: e16c 00bd cd87 d3bd a614 953d 57b8 b8be
00000080: 3e4a 25bf 3160 70bd 3861 673e 0541 1ebe
00000090: 8d2f 233e 7940 1c3e 35ff 813e 7714 013e
000000a0: 2404 413e b8a4 ccbd 62a6 b23c 4273 73be
000000b0: 2a57 0cbf d32f d83d a159 b73d 78e5 103e
000000c0: 4215 dfbd 2742 0f3d 6c33 13bd 8024 3ebe
000000d0: 7c62 333e 3bee 1e3e 97a2 3e3e 42d2 be3d
000000e0: cbe9 bdbc 458b 253d 2be1 8d3d 8cd2 e53c
000000f0: ebcf 343e ee96 6f3d cda7 42be a29c d9bd
00000100: ffcc 603d 38ea 25bd 86b8 cfbc 6be2 ebbd
00000110: 5017 0abf faa0 c63d e3f3 743d ee90 afbe
00000120: 7e4d 153e 2de3 163e 3a2c cfbd 88b7 353d
00000130: 4f9a 0dbd 7865 0abf 65ec 2d3e 8154 a43e
00000140: a7ad bf3c 0f0a 613d de99 593e 303f 313e
00000150: 510c 023e add1 5e3d 978f ddbd 5b08 c5bd
00000160: 0bcd cfbe 4cce dbbe 61d2 f43a 4237 913e
00000170: 3b61 fe3e 1ab1 f5bd 40eb 88be 6d31 55be
00000180: 3015 543d 5749 893d 1a76 c8bd f651 5f3b
00000190: 3758 353e eba2 f0bd ad84 9d3d dfb0 45be
000001a0: 9a09 3fbf 4376 963d 145d b53e 684f ce3e
000001b0: f9ff 693e df42 b83d d6f4 49be 37c4 963e
000001c0: 45da 40bd a0b2 d73c d0cd 34be bd94 933d
000001d0: 1a09 783e c748 ffbc 72b3 8e3b 1644 1abe
000001e0: a844 0dbe ae9c 163d 0904 253e b469 c6bd
000001f0: b108 aabd b066 aa3d f4d0 893d bc50 68bd
00000200: 4f30 043d 082c f83d 3552 ed3b 0793 033e
00000210: 37e2 2e3e 2e21 ee3c c59d 04bf 2b18 973d
00000220: 33d9 a3bd dbd9 58bd 4d5a e8bd 4552 88bd
00000230: a4a2 0f3d 88c1 3e3e 55ad 493d bd9f 47be
00000240: 3052 95bd adb5 dd3d a589 2d3d 9304 0f3e
00000250: 55c5 673e 322a 9c3e 41f7 f63d 350c ccbd
00000260: 9283 17be 451a f8bd b616 9abd 98d2 b2bd
00000270: ccc8 43bd ef0e febc 07f7 d1bc 1fc5 88be
00000280: 5dc9 4a3e cde7 1c3e 13ab 823e 1069 9a3d
00000290: f138 6c3e a8f1 b7bd 0c81 3dbe ea79 c6be
000002a0: fe6f 67be 97cf 56be 9af7 a9be 8e5e a2bc
000002b0: 4982 8ebe 7c64 06bf dfbc 72bd 8a09 2fbe
000002c0: 1eb0 99be f9bb b13d f08f 393e 1419 4dbe
000002d0: a44a 123e f642 2f3e 3a00 573d a21e f43d
000002e0: 9c0d 5e3d 5a33 81be b9d4 523e 7ad3 1f3e
000002f0: 3411 21bd f2b9 94bd ea42 6fbe 456c 17be
00000300: d3c3 393c 9194 1ebd f753 2bbc 599a d5bd
00000310: 60d7 25bc e952 e23d 3710 6b3e 6995 8a3e
00000320: 8dff 1f3e e21a 443d ff01 463e 3710 27be
00000330: 4959 3d3d 2569 7e3c e08e eabd 0e9b 25bb
00000340: f140 8f3c fae7 243e 69e3 7b3e a5e5 ccbd
00000350: 2546 acbe ae25 38be 8ab8 5d3d 40dc 40be
00000360: 5dc2 c03c a1ae 5abc 9c91 0e3d 8bc4 223e
00000370: d83a 0b3e 3d30 cebe 25c3 2c3c 5aa3 1d3e
00000380: 7bfa 08bd 2c37 303d 8f2c f03c d59d acbe
00000390: 0305 72bd ed27 cbbb ea47 24be aec8 c8bd
000003a0: 764d 0cbe 9b72 09bc b005 5e3e 049c 863e
000003b0: e886 783e d047 da3d c86f 363d dd05 adbc
000003c0: b33c 4ebd 1d61 603e 1a7a aa3d c037 40bd
000003d0: fd5c 8dbe c204 14bf b895 c1bc a1f8 dbbd
000003e0: c33b ccbe a553 a13e 7bdf 403e 3064 2fbe
000003f0: f56d 33bc f8fe 0bbe b5fe 9dbe c79c 70bd

layers.6.bias f4 [32]
-0.04959231 -0.1897139 -0.07723501 -0.22740446 -0.013256893 0.08464618 0.009897051 -0.37524217
-0.22546148 0.1028945 -0.04899299 0.03939253 -0.22762012 -0.12403567 -0.2650533 0.20794664
0.14437847 -0.11363558 0.0988131 0.06017653 -0.14919539 0.06406039 -0.052139327 0.06665442
-0.0040343665 0.056384698 -0.17650348 -0.089731656 0.023587622 -0.087767884 -0.0062880474 0.13256353
00000000: 4e21 4bbd 5c44 42be 642d 9ebd b7dc 68be
00000010: 7033 59bc fa5a ad3d 3e27 223c be1f c0be
00000020: 60df 66be 5aba d23d e0ac 48bd 105a 213d
00000030: 4015 69be 6a06 febd 11b5 87be f7ef 543e
00000040: f3d7 133e c5b9 e8bd 865e ca3d aa7b 763d
00000050: adc6 18be 1832 833d 0c90 55bd 1d82 883d
00000060: b832 84bb a4f3 663d 54bd 34be 3bc5 b7bd
00000070: d43a c13c a6bf b3bd f70b cebb bcbe 073e

classifier.0.weight f4 [10, 32]
-0.4189442 -0.28345665 0.07598057 -0.23472652 -0.40111944 -0.26953644 0.27436075 0.14250746
0.16594708 0.019036291 0.22194558 0.05793364 0.24708349 0.018392608 -0.025168682 0.13879754
-0.6200369 -0.08910134 -0.29082897 -0.20420359 -0.33985078 -0.013954002 0.1905533 0.20973413
-0.12646286 0.038191132 0.40808174 -0.032119464 0.18731622 -0.1613248 -0.06663155 -0.038354613
-0.066531174 -0.34060845 -0.14036521 -0.025702974 -0.000346539 0.23698257 -0.39137298 -0.40975592
-0.39934236 0.2711203 -0.024080615 -0.21767662 -0.25537837 -0.12595837 -0.4305568 0.30406573
0.077149004 0.004535845 0.046848454 0.010858503 -0.34832436 -0.13376437 -0.12455736 0.0728123
0.32592076 0.2010959 -0.1669924 0.044773992 0.09735243 -0.15107752 -0.15370674 0.14256038
-0.3899527 0.10980193 0.052713778 -0.38215956 0.18314323 0.21811292 0.10809951 -0.15680239
-0.056612067 0.10722508 0.1397965 -0.4367849 0.03767708 0.058401424 0.21431954 -0.0965013
0.10485817 0.25450566 -0.39051616 0.15141204 -0.24160582 0.06716312 0.06083903 -0.050811943
-0.22320227 -0.2609203 0.051992927 -0.12292326 0.27679247 -0.03222127 -0.17734788 0.15777145
0.38370457 0.113348626 -0.11541146 0.2224841 0.31776986 -0.13669403 -0.282941 0.260307
-0.14547071 -0.08230516 0.14339118 -0.29664785 -0.14655128 -0.0024166603 -0.1595422 -0.12067503
-0.16036758 -0.25622866 0.243815 0.33912256 -0.2844964 0.24367 0.19780031 -0.14824933
-0.34495127 -0.2530863 0.12744667 0.09688678 -0.0794419 -0.021273455 0.071732074 -0.21845339
-0.14061727 -0.40049136 -0.08400531 0.28502014 -0.15949135 -0.19757527 -0.13699527 -0.05869236
0.19366923 0.15824981 0.13183817 0.30906448 -0.07506054 0.008905775 -0.040106982 0.09510545
0.049278297 0.21649386 -0.21710452 -0.44388297 0.29541993 -0.19739072 -0.23059049 0.08743221
0.37003425 -0.31917375 -0.33325845 0.043710694 -0.09198933 0.14263383 0.15138432 0.11686794
0.21348643 0.33955026 -0.15788068 0.15270469 0.28244233 -0.32512397 -0.154536 0.05430734
-0.16130151 -0.20259719 -0.089022465 0.11290063 0.14660972 -0.1412393 -0.12230401 -0.45701316
-0.17340185 -0.02549619 0.05865591 -0.18267752 0.14406978 -0.3970659 0.0038062525 -0.078053735
-0.31257552 0.32610127 0.1385753 -0.17806149 0.03957711 0.1223573 -0.09328605 0.21902084
-0.10778743 0.19337241 -0.016476246 0.06980189 -0.5316284 0.07194089 -0.076561034 0.2850721
0.11360699 0.001040933 -0.38502726 -0.07668432 0.19510454 0.13787869 0.192803 -0.051894337
-0.3451308 -0.10949335 -0.19343069 -0.10698445 -0.3574817 -0.2392578 -0.51484364 -0.4429016
-0.17195235 0.23632175 -0.057026926 -0.08417919 0.32417744 0.14341122 -0.0509175 -0.024480453
-0.40596458 -0.006618782 0.033585414 0.04608012 -0.07696058 -0.013454991 0.23752974 0.044713657
-0.50978386 -0.08209511 0.120781645 -0.0064340695 -0.44102147 -0.04792303 0.116928466 0.11268461
0.0041337153 -0.2528328 0.19577399 0.23639557 0.12445002 -0.1896658 0.18818398 0.08370537
0.4164141 -0.13783465 -0.026227593 -0.0523373 -0.08873013 0.10685195 -0.16026163 -0.26950735
00000000: db7f d6be 3b21 91be b39b 9b3d 265c 70be
00000010: 875f cdbe ae00 8abe 0379 8c3e 7aed 113e
00000020: 08ee 293e fff1 9b3c b445 633e d34b 6d3d
00000030: 7403 7d3e 18ac 963c 8d2e cebc f120 0e3e
00000040: bdba 1ebf c37a b6bd 89e7 94be bf1a 51be
00000050: ec00 aebe 549f 64bc 6720 433e 8bc4 563e
00000060: 7b7f 01be 4e6e 1c3d 17f0 d03e b38f 03bd
00000070: d3cf 3f3e 5432 25be 1f76 88bd ba19 1dbd
00000080: 7f41 88bd 3b64 aebe e6bb 0fbe 0b8f d2bc
00000090: adaf b5b9 8fab 723e 0a62 c8be 87cb d1be
000000a0: 9a76 ccbe 48d0 8a3e b644 c5bc 9fe6 5ebe
000000b0: f4c0 82be 3bfb 00be f171 dcbe 81ae 9b3e
000000c0: 4c00 9e3d 6da1 943b 2ae4 3f3d dde7 313c
000000d0: 9257 b2be 87f9 08be ee17 ffbd 9d1e 953d
000000e0: 16df a63e 15ec 4d3e 0e00 2bbe ef64 373d
000000f0: b660 c73d 11b4 1abe 4d65 1dbe 59fb 113e
00000100: e1a7 c7be d6df e03d 67ea 573d 6baa c3be
00000110: e689 3b3e fe58 5f3e 4763 dd3d ce90 20be
00000120: 0ee2 67bd d398 db3d d026 0f3e 45a2 dfbe
00000130: 4853 1a3d 5536 6f3d 9576 5b3e 79a2 c5bd
00000140: e1bf d63d 914e 823e bcf1 c7be c20b 1b3e
00000150: 8467 77be d18c 893d 5932 793d 2f20 50bd
00000160: 238f 64be 5897 85be 89f6 543d 31bf fbbd
00000170: beb7 8d3e 73fa 03bd af9a 35be d78e 213e
00000180: ed74 c43e 5323 e83d d85c ecbd dfd2 633e
00000190: bbb2 a23e 85f9 0bbe a5dd 90be f646 853e
000001a0: 46f6 14be 9c8f a8bd 23d5 123e 3ae2 97be
000001b0: 8a11 16be d560 1ebb 085f 23be 7824 f7bd
000001c0: 6637 24be 6730 83be a4aa 793e 79a1 ad3e
000001d0: 83a9 91be a184 793e 2a8c 4a3e acce 17be
000001e0: 749d b0be 8794 81be 6181 023e 936c c63d
000001f0: 6fb2 a2bd ab45 aebc 44e8 923d 3fb2 5fbe
00000200: f9fd 0fbe 340d cdbe fa0a acbd 29ee 913e
00000210: b351 23be 2c51 4abe 7d48 0cbe 6667 70bd
00000220: 3a51 463e 3d0c 223e 9600 073e b33d 9e3e
00000230: 57b9 99bd 87e9 113c 3847 24bd a5c6 c23d
00000240: 0ad8 493d 91b0 5d3e a650 5ebe a144 e3be
00000250: 4841 973e cb20 4abe ea1f 6cbe a90f b33d
00000260: 2175 bd3e be6a a3be daa0 aabe fc09 333d
00000270: e764 bcbd 9a0e 123e 7e04 1b3e 7558 ef3d
00000280: 309c 5a3e 88d9 ad3e 79ab 21be 9e5e 1c3e
00000290: 489c 903e a676 a6be af3e 1ebe 6071 5e3d
000002a0: 392c 25be a375 4fbe 6951 b6bd 7238 e73d
000002b0: dc20 163e 09a1 10be 867a fabd a1fd e9be
000002c0: 4190 31be 63dd d0bc 2e41 703d d10f 3bbe
000002d0: 0787 133e 394c cbbe 5272 793b a3da 9fbd
000002e0: e609 a0be bff6 a63e afe6 0d3e c055 36be
000002f0: 9c1b 223d 7796 fa3d c20c bfbd 0047 603e
00000300: a8bf dcbd 6b03 463e 31f9 86bc 4bf4 8e3d
00000310: cc18 08bf bf55 933d 08cc 9cbd f8f4 913e
00000320: c8aa e83d ea6f 883a 4b22 c5be ab0c 9dbd
00000330: 7cc9 473e 1230 0d3e 266e 453e 288f 54bd
00000340: fcb4 b0be 0d3e e0bd b212 46be aa1a dbbd
00000350: d707 b7be ffff 74be cbcc 03bf 00c4 e2be
00000360: 4714 30be 54fe 713e 1195 69bd 2466 acbd
00000370: 96fa a53e 64da 123e de8e 50bd 3b8b c8bc
00000380: 97da cfbe 5ee2 d8bb dc90 093d 82be 3c3d
00000390: 829d 9dbd 5372 5cbc ff3a 733e ab25 373d
000003a0: 3281 02bf 7b21 a8bd 5e5c f73d e3d4 d2bb
000003b0: 91cd e1be f04a 44bd 3178 ef3d 30c7 e63d
000003c0: 1e74 873b 4d73 81be fa78 483e ae11 723e
000003d0: a7df fe3d c037 42be 4db3 403e b96d ab3d
000003e0: 3b34 d53e 8724 0dbe 40db d6bc a35f 56bd
000003f0: 24b8 b5bd 32d5 da3d a01b 24be defc 89be

classifier.0.bias f4 [10]
0.1767607 0.3434477 -0.08284756 0.027141292 -0.12338541 0.07056406 0.04032448 0.009976241
0.062841915 -0.25659
00000000: c200 353e 60d8 af3e fbab a9bd 6a57 de3c
00000010: 7db1 fcbd e483 903d 482b 253d 6373 233c
00000020: 43b3 803d c45f 83be

exp_avg f4 [8, 1, 3, 3]
0.004162488 -0.008678035 -0.012474441 -0.0014305923 -0.012968422 -0.0075537795 -0.0014015442 -0.013753609
-0.017615952 0.0027946057 -0.009694145 -0.011775836 0.007316945 -0.005192853 -0.0036003573 0.0086190095
0.00025848972 -0.005179856 -0.012987743 -0.009862298 -0.014153763 -0.009462881 -0.010825345 -0.01737866
-0.007845743 -0.004226388 -0.008498846 -0.010126856 -0.014961279 -0.009002736 -0.0023525138 -0.00455372
-0.005648306 -0.008909156 -0.007541278 -0.007992856 -0.0020915833 -0.00028908267 -0.0043729595 -0.012451036
-0.004433653 -0.0009870839 -0.008098942 -0.002275991 0.0006940065 0.007027455 0.000329139 -0.00359144
-0.0025657606 -0.0073644393 -0.024220461 -0.009244127 -0.015262811 -0.025018072 0.009409788 0.008711953
0.008666175 -0.0010750681 -0.006416365 -0.008639684 -0.011005921 -0.015190113 -0.009228717 0.0029177864
0.0061850715 -0.004905193 0.0053310078 0.013361507 0.0025147812 0.012881643 0.008034086 0.010323713
00000000: 7b65 883b 512e 0ebc 9961 4cbc b682 bbba
00000010: 8179 54bc b285 f7bb 05b4 b7ba d156 61bc
00000020: 544f 90bc b425 373b 31d4 1ebc 70ef 40bc
00000030: fcc2 ef3b cf28 aabb f9f3 6bbb bf36 0d3c
00000040: e785 8739 c8bb a9bb 8bca 54bc 7a95 21bc
00000050: 2fe5 67bc 330a 1bbc ca5c 31bc b15d 8ebc
00000060: 6e8b 00bc 837d 8abb be3e 0bbc 1deb 25bc
00000070: 2720 75bc 3680 13bc a22c 1abb 5f37 95bb
00000080: 6d15 b9bb b5f7 11bc d31c f7bb 78f4 02bc
00000090: f212 09bb 0590 97b9 0b4b 8fbb 6eff 4bbc
000000a0: 2d48 91bb 0a61 81ba 6db1 04bc cb28 15bb
000000b0: fded 353a 9146 e63b 4a90 ac39 5d5e 6bbb
000000c0: 5226 28bb 6551 f1bb fd69 c6bc ae74 17bc
000000d0: df10 7abc b3f2 ccbc 832b 1a3c 94bc 0e3c
000000e0: 93fc 0d3c 4de9 8cba 5f40 d2bb 768d 0dbc
000000f0: 2e52 34bc f4df 78bc 0b34 17bc 5538 3f3b
00000100: 24ac ca3b bebb a0bb bcaf ae3b 39ea 5a3c
00000110: 07cf 243b 870d 533c 66a1 033c ca24 293c

exp_avg_sq f4 [8, 1, 3, 3]
0.0015107787 0.0015383309 0.0016407649 0.0013918328 0.0020618169 0.0017379025 0.0014583562 0.001626458
0.0014888204 0.0028806129 0.00305348 0.0040083504 0.0029802443 0.0022827277 0.0031446838 0.004139948
0.0034566591 0.0036490147 0.0034840135 0.0032060954 0.002563141 0.0024661883 0.0016522361 0.0018971347
0.0019338565 0.0018651428 0.002443452 0.002496564 0.0016761246 0.0019332417 0.0019446372 0.001390888
0.0015575185 0.0015128012 0.0015653345 0.0016371201 0.0021929683 0.0019480638 0.0020834145 0.0023825597
0.0017608752 0.0027164682 0.002493196 0.0025273724 0.003170744 0.00076835766 0.0010104944 0.0013262746
0.00069313444 0.0009019134 0.0011963642 0.0009318135 0.0008749714 0.0011594417 0.0028065857 0.002136014
0.0015355442 0.0021294008 0.00093976717 0.0014288275 0.0013752716 0.0014969914 0.0022796602 0.00094547484
0.0009456722 0.0008243352 0.0007498453 0.0010668675 0.00097569777 0.0009016787 0.0009902858 0.001131122
00000000: 5205 c63a d2a1 c93a ef0e d73a 296e b63a
00000010: 8c1f 073b 55ca e33a 5026 bf3a e02e d53a
00000020: 8624 c33a aac8 3c3b e51c 483b 7b58 833b
00000030: 3450 433b d199 153b 0a17 4e3b 67a8 873b
00000040: 1e89 623b 4f24 6f3b 0c54 643b 5b1d 523b
00000050: 5ffa 273b c69f 213b d88f d83a 47a9 f83a
00000060: 7579 fd3a cf77 f43a 5222 203b 659d 233b
00000070: 69b1 db3a d464 fd3a 32e3 fe3a 754e b63a
00000080: a625 cc3a 2f49 c63a e92b cd3a a394 d63a
00000090: e7b7 0f3b 2d56 ff3a e589 083b b824 1c3b
000000a0: 2bcd e63a c606 323b e364 233b 46a2 253b
000000b0: 42cc 4f3b 9c6b 493a 9172 843a 64d6 ad3a
000000c0: 77b3 353a 626e 6c3a 52cf 9c3a f244 743a
000000d0: 565e 653a 68f8 973a b2ee 373b 5efc 0b3b
000000e0: 5044 c93a 6b8d 0b3b b55a 763a 7f47 bb3a
000000f0: 7542 b43a b236 c43a 5a66 153b bed9 773a
00000100: fde6 773a 3318 583a 4491 443a 22d6 8b3a
00000110: f8c5 7f3a a25e 6c3a 7acc 813a 2842 943a

exp_avg f4 [8]
0.015459028 0.0049045393 0.002345326 0.009714876 -0.00061927777 0.011996767 -0.008629088 0.016212713
00000000: dd47 7d3c 42b6 a03b 0ab4 193b 252b 1f3c
00000010: 0757 22ba 168e 443c 0561 0dbc 86d0 843c

exp_avg_sq f4 [8]
0.003322736 0.0073668556 0.0058003664 0.00408712 0.00434812 0.0009577494 0.0035067932 0.0015835771
00000000: 42c2 593b aa65 f13b 0011 be3b 3fed 853b
00000010: ad7a 8e3b 7911 7b3a 3ad2 653b 0890 cf3a

exp_avg f4 [16, 8, 3, 3]
0.00040691366 0.00037283302 -0.00018431598 -0.00015580152 0.0032274232 0.00088953547 0.001177983 0.0022068047
0.00088487344 0.0013980109 -0.0012834995 -0.0052367896 -0.00041013156 0.0005789288 -0.0021586954 0.0003601884
0.003027923 0.0052884687 0.0020810352 0.004367924 0.008401418 0.0049627344 0.009478071 0.01023497
0.0030506765 -0.0002023413 -0.0043248637 0.00017287595 0.0008090979 0.0011270373 -0.0007818489 0.0035035377
0.00735615 0.0024557605 0.0021597177 0.0013925312 -0.0002876732 0.0013294492 0.00084054196 -0.0034475273
7.18287e-05 -0.00057484553 0.00075642276 -0.0018217798 0.0023662422 -0.0024893705 -0.00127958 -0.0018716689
-0.00047336082 0.0020361962 -1.828963e-05 0.0045730267 0.0048381425 0.011392426 0.0005102039 0.0013452519
0.00013204948 0.002671912 0.0066889524 0.0048749587 0.003137524 0.0067397216 -0.0035393767 -0.00010794254
0.0011170101 0.0008480001 -0.0003030641 7.397562e-05 0.0044337967 -0.001113517 0.0035923806 0.008044004
0.0077647693 0.008349163 0.007813918 0.0043599997 0.0051798876 0.005972258 0.0029607702 0.0074773272
0.004331425 0.009700925 0.0076847957 0.011069592 0.0056181937 0.0013316097 0.0042278557 0.008880294
0.00692767 0.008059922 0.0046220575 0.0057182573 0.0033885667 0.003505924 0.003655763 0.007508707
0.00032371763 0.0026384776 0.0023674467 0.0043477407 0.0049191583 0.0034698243 0.0039643 0.00752476
0.007008386 0.0018207956 0.004684288 0.003854054 0.0063563865 0.014789138 0.005386778 0.005069477
0.013346909 0.0074124406 0.005450229 0.014267003 0.003982339 0.012291785 0.016238073 0.0068565058
-0.0011572874 0.009415386 0.01407477 0.0072272597 0.01984745 0.010093616 0.008906009 0.0026632622
0.0019428795 0.0099056475 -0.00011679165 0.0056032334 0.0060459995 0.00387591 0.0037127666 0.009492339
0.0060434914 0.0044638515 0.009475034 0.0100139 0.0048804423 0.0081768045 0.0043351683 0.001420338
-0.0019941777 -0.003505848 -0.002143639 -0.00069461256 -0.001470629 -0.0012942668 -0.00023242462 0.00051149353
0.00022993133 -0.0076036886 -0.008064979 -0.0060252426 -0.00087366666 -0.0038718835 -0.004611704 -0.0019079025
-9.341127e-05 0.0012135118 -0.0022151389 -0.0010222394 -3.818631e-05 -0.00020686159 0.00095141254 0.0022400245
0.0009115207 0.0013660976 0.00037971788 -0.0033411507 -0.0026238633 -0.0036206553 0.00013369114 -0.00016141
0.002307879 0.00022260734 0.0002605102 0.0011203549 -0.0005310727 -0.0017166528 -0.0035239821 -0.002122278
-0.0024427706 0.00033018252 -0.0011323681 -5.4314212e-05 -0.0009936645 -0.0076856664 -0.011006344 -0.0077038296
-0.004791267 -0.002942534 -0.001116263 -0.0013378684 -0.00028319232 -0.0015246769 -0.0009797396 -0.003062058
-0.0015518053 -7.994493e-05 0.0002837543 0.00079343084 0.00093847775 0.0010616275 -0.00032507637 -0.0015706009
0.0001024138 -0.0031507183 -0.00030774678 -0.00016401219 -0.0005583547 -2.7045412e-06 0.0001790555 0.0014080455
-0.0015937971 0.0021987718 0.0019328936 -0.0018866034 0.0016268843 -0.00021940927 -0.00036753982 0.00010880151
-0.0003169225 0.0013275491 0.0041258503 0.0028833982 -0.0017885038 0.0004930205 0.0015820058 -0.00089334964
-0.0015612837 0.00015766206 -0.0005644075 -0.002088644 -0.0050550383 -0.003149792 -0.00021810249 -0.0012297508
0.0030126106 0.0043744836 -0.00042254498 -0.001834994 -0.0019942408 -0.0002727956 -0.0025231203 -0.0023689016
-0.003009436 0.0016471477 0.0011632362 0.0008916731 -0.005113031 -0.0023551967 -0.0018024801 -0.004077395
00000000: 0757 d539 cd78 c339 f244 41b9 a75e 23b9
00000010: 2d83 533b b72f 693a 8d66 9a3a 0aa0 103b
00000020: daf6 673a 763d b73a 193b a8ba 6099 abbb
00000030: ed06 d7b9 41c3 173a e678 0dbb abd7 bc39
00000040: 1e70 463b e44a ad3b fa61 083b cd20 8f3b
00000050: 1aa6 093c 6f9e a23b e949 1b3c 93b0 273c
00000060: dced 473b 942b 54b9 96b7 8dbb 0946 3539
00000070: a419 543a 19b9 933a fef4 4cba 9c9b 653b
00000080: dc0b f13b d3f0 203b 0d8a 0d3b 9885 b63a
00000090: d8d2 96b9 ea40 ae3a d157 5c3a e9ef 61bb
000000a0: bda2 9638 3bb1 16ba ac4a 463a c9c8 eeba
000000b0: f512 1b3b b524 23bb 95b7 a7ba c952 f5ba
000000c0: 6a2d f8b9 b471 053b ae6c 99b7 54d9 953b
000000d0: 4889 9e3b 4ca7 3a3c 34bf 053a 2a53 b03a
000000e0: c376 0a39 3f1b 2f3b 002f db3b 1ebe 9f3b
000000f0: eb9e 4d3b e2d8 dc3b e3f4 67bb 365f e2b8
00000100: a468 923a 534c 5e3a 93e4 9eb9 5c23 9b38
00000110: 6249 913b 6ef3 91ba 256e 6b3b 00cb 033c
00000120: 9b6f fe3b eeca 083c f305 003c 54de 8e3b
00000130: 0cbc a93b eeb2 c33b 7b09 423b 5e04 f53b
00000140: a0ee 8d3b a1f0 1e3c bdd0 fb3b 3c5d 353c
00000150: d318 b83b 6889 ae3a d389 8a3b a77e 113c
00000160: 8201 e33b c30d 043c a174 973b 3860 bb3b
00000170: b712 5e3b a5c3 653b 8795 6f3b 9a0b f63b
00000180: a5b8 a939 4fea 2c3b 2a27 1b3b 7e77 8e3b
00000190: e430 a13b fe65 633b f5e6 813b 4392 f63b
000001a0: 9aa6 e53b c3a7 ee3a a87e 993b 4c94 7c3b
000001b0: 3c49 d03b 244e 723c 9283 b03b db1d a63b
000001c0: feac 5a3c 0fe4 f23b d697 b23b 26c0 693c
000001d0: 487e 823b 7c63 493c b505 853c 8aac e03b
000001e0: 1fb0 97ba fe42 1a3c dd99 663c a6d2 ec3b
000001f0: 1f97 a23c b25f 253c 82ea 113c 208a 2e3b
00000200: 38a8 fe3a 4c4b 223c 0aee f4b8 549b b73b
00000210: 851d c63b fb02 7e3b e351 733b c185 1b3c
00000220: 7b08 c63b 8045 923b 2c3d 1b3c 5711 243c
00000230: 1eec 9f3b 01f8 053c 070e 8e3b a32a ba3a
00000240: c0b0 02bb 5fc2 65bb 4b7c 0cbb a916 36ba
00000250: 1fc2 c0ba 63a4 a9ba 02b7 73b9 c015 063a
00000260: b919 7139 5d28 f9bb f922 04bc 666f c5bb
00000270: c706 65ba 6dbf 7dbb c71d 97bb 9612 faba
00000280: cbe5 c3b8 b30e 9f3a dd2b 11bb aafc 85ba
00000290: 3d2a 20b8 fce8 58b9 3768 793a 60cd 123b
000002a0: 1ef3 6e3a a10e b33a df14 c739 35f7 5abb
000002b0: 1ff5 2bbb 8448 6dbb 712f 0c39 2b40 29b9
000002c0: c93f 173b b46b 6939 1695 8839 dfd8 923a
000002d0: b037 0bba 4f01 e1ba 9cf2 66bb eb15 0bbb
000002e0: e416 20bb 591c ad39 f86b 94ba 71cf 63b8
000002f0: d93d 82ba 0bd8 fbbb f453 34bc 6870 fcbb
00000300: 1000 9dbb 87d7 40bb 924f 92ba 6a5b afba
00000310: 6e79 94b9 abd7 c7ba 9b6a 80ba cfac 48bb
00000320: f265 cbba 1ca8 a7b8 dcc4 9439 3efe 4f3a
00000330: 2d04 763a 4f26 8b3a 036f aab9 9fdc cdba
00000340: fdc6 d638 487c 4ebb 1359 a1b9 b0fa 2bb9
00000350: 8d5e 12ba aa7f 35b6 d8c0 3b39 2b8e b83a
00000360: f5e6 d0ba 4519 103b 2659 fd3a e847 f7ba
00000370: 2e3d d53a 3a11 66b9 5cb2 c0b9 5e2c e438
00000380: 9e28 a6b9 2801 ae3a 2432 873b 65f7 3c3b
00000390: 3b6c eaba 0c3e 013a 4e5b cf3a ae2f 6aba
000003a0: fda3 ccba 1652 2539 bff4 13ba a2e1 08bb
000003b0: bca4 a5bb be6c 4ebb 71b2 64b9 972f a1ba
000003c0: 386f 453b d457 8f3b 0789 ddb9 2e84 f0ba
000003d0: cfb1 02bb 0106 8fb9 ef5a 25bb 933f 1bbb
000003e0: f539 45bb 1be5 d73a bb77 983a 2bbf 693a
000003f0: 368b a7bb a559 1abb 3241 ecba ab9b 85bb

exp_avg_sq f4 [16, 8, 3, 3]
7.605841e-05 6.565523e-05 8.9455345e-05 5.8629445e-05 5.2004383e-05 5.9831225e-05 0.00014488609 0.00015764355
0.00015426446 0.00032924593 0.00041673097 0.0005703129 2.9554882e-05 2.1622925e-05 4.268338e-05 0.00035372766
0.000279473 0.00017576685 0.000114455426 6.905228e-05 8.709228e-05 0.0007778884 0.00085404475 0.00080412545
0.000758327 0.0010793782 0.0012511328 3.1385098e-05 1.4072706e-05 2.9425148e-05 0.0003103608 0.00023040823
0.00016332763 0.00051702524 0.0007007799 0.00067862764 0.00019109405 0.00013673613 0.00010957528 0.00045274207
0.00041740524 0.0002521532 0.00053003506 0.00061607646 0.0006310938 0.0003256166 0.00032932247 0.00028391075
0.00012858758 0.00011932153 0.00010334507 0.00047212344 0.00044455114 0.00048545667 7.62099e-05 7.0437185e-05
0.00017601905 0.00019612965 0.00017972407 0.00031799838 0.00033950072 0.00032629116 0.0004172123 2.4778386e-05
2.3044333e-05 6.7952e-05 0.000151037 7.591308e-05 4.248816e-05 0.0004170127 0.00047344223 0.00039637124
0.00010898858 0.0001307978 0.00016480545 0.000112870206 0.00013769678 8.437977e-05 0.00012535849 0.00013553046
7.48461e-05 0.0001434352 0.00024312551 0.00047616297 0.00016279107 0.00010639592 0.00010703941 0.00029057724
0.00022378421 0.00014264502 0.00028129292 0.00013579182 5.6853478e-05 0.00020941615 0.00022489013 0.00023317935
0.00013332677 0.00025542884 0.0003229534 0.00012611675 0.00011151497 7.1379385e-05 0.00012117967 0.00022502965
0.00013195517 0.00012912515 0.0003248583 0.00022717018 0.00025340696 0.00081912684 0.0005035987 0.00040020264
0.0011900584 0.0003783332 0.0005128342 0.0009996454 0.0003251438 0.00031156666 0.0011498972 0.0009576013
0.00043358663 0.0008787576 0.00032084505 0.0005801794 0.0006825422 0.00028447475 0.0005152473 0.00020441589
2.021763e-05 0.00048827345 5.7939113e-05 5.7233294e-05 0.000326401 5.2853204e-05 7.559621e-05 0.00019809864
0.00014294834 7.413095e-05 0.00025040633 0.0002462275 6.151308e-05 0.00029347776 0.0003566705 0.00011703852
6.6580025e-05 8.719536e-05 0.00010261401 5.7869052e-05 7.780093e-05 0.00012406093 1.51486165e-05 3.2146752e-05
8.703808e-05 0.00031737782 0.0003495633 0.00029781007 0.00041366834 0.00055689283 0.0005932288 8.367148e-05
0.0001499925 0.00030053363 0.0002390167 0.00031603474 0.0004940881 9.855523e-06 2.693417e-05 9.03607e-05
6.18466e-05 0.00013486766 0.00023269615 0.00017249648 0.00022926721 0.0003263841 2.3193257e-05 3.4040684e-05
0.00010616398 1.058577e-05 1.6861633e-05 4.4577053e-05 0.00017556251 0.00015389142 0.0003714424 6.212448e-05
2.6842548e-05 0.0001469363 4.3636337e-05 1.1998377e-05 0.00010309227 0.0004341421 0.00036790984 0.0004161976
0.0003751257 0.0002931588 0.0003891506 4.1222425e-05 3.288375e-05 0.00017370608 9.385009e-05 0.00022493873
0.00034166654 2.5583488e-05 0.0001802242 0.0003611903 1.871162e-05 0.00018402324 0.00041186396 0.00012704359
0.00019990477 0.0003006902 2.2845776e-05 5.5236524e-05 0.00026651318 1.634456e-06 3.113699e-06 0.00010407636
4.5728146e-05 6.915726e-05 8.508996e-05 7.347661e-05 8.802152e-05 0.00014645644 0.0001172619 0.00015302675
0.00016924918 9.08428e-05 7.006714e-05 9.566086e-05 6.157957e-05 9.3797236e-05 0.00020610924 0.00013233062
0.00020436879 0.0002833456 0.0001911889 0.00042060885 0.0005333436 0.00054725126 0.0005541874 0.00032848245
0.000561752 0.00022671027 0.00018105628 4.509697e-05 7.975859e-05 0.00017375399 0.00015187984 0.00017767861
0.00019810438 0.00021435323 0.00015554157 0.00021587011 0.00011283253 5.2897714e-05 0.00052349374 8.771815e-05
00000000: 8c81 9f38 62b0 8938 f999 bb38 e3e8 7538
00000010: 481f 5a38 4af3 7a38 90ec 1739 1e4d 2539
00000020: 0dc2 2139 a49e ac39 af7c da39 0d81 153a
00000030: a0ec f737 e162 b537 ee06 3338 8674 b939
00000040: 3b86 9239 0e4e 3839 ca07 f038 29d0 9038
00000050: 50a5 b638 35eb 4b3a f9e1 5f3a f2cb 523a
00000060: 77ca 463a ec79 8d3a 0dfd a33a 7ea3 0338
00000070: d019 6c37 06d6 f637 ecb7 a239 bd99 7139
00000080: ed42 2b39 fa88 073a 8bb4 373a eee5 313a
00000090: 6b60 4839 d360 0f39 c8cb e538 035e ed39
000000a0: 2fd7 da39 6e33 8439 0df2 0a3a 3180 213a
000000b0: fd6f 253a 85b7 aa39 eaa8 ac39 dbd9 9439
000000c0: 77d5 0639 423c fa38 f6ba d838 5687 f739
000000d0: a512 e939 e484 fe39 e1d2 9f38 adb7 9338
000000e0: c191 3839 27a8 4d39 5074 3c39 05b9 a639
000000f0: 04ff b139 0f12 ab39 49bd da39 2edb cf37
00000100: 544f c137 7481 8e38 b05f 1e39 8633 9f38
00000110: 5035 3238 7fa2 da39 5738 f839 0cd0 cf39
00000120: cc90 e438 c426 0939 a0cf 2c39 bbb4 ec38
00000130: b362 1039 0bf5 b038 aa72 0339 2e1d 0e39
00000140: b2f6 9c38 1867 1639 82ef 7e39 83a5 f939
00000150: e5b2 2a39 e020 df38 587a e038 9e58 9839
00000160: 9ea7 6a39 fb92 1539 7f7a 9339 5763 0e39
00000170: f575 6e38 b896 5b39 7cd0 6b39 9b81 7439
00000180: a2cd 0b39 14eb 8539 1252 a939 353e 0439
00000190: 25dd e938 84b1 9538 d721 fe38 f0f5 6b39
000001a0: 725d 0a39 c565 0739 be51 aa39 8834 6e39
000001b0: b5db 8439 acba 563a f003 043a 4ad2 d139
000001c0: bcfb 9b3a 065b c639 b86f 063a 8906 833a
000001d0: 1078 aa39 c559 a339 26b8 963a 8907 7b3a
000001e0: 0353 e339 6d5c 663a 1837 a839 2e17 183a
000001f0: a2ec 323a 8e25 9539 a911 073a 7958 5639
00000200: 0899 a937 f4fe ff39 a603 7338 c80d 7038
00000210: cd20 ab39 b2ae 5d38 6889 9e38 b3b8 4f39
00000220: 67e4 1539 c076 9b38 f848 8339 1818 8139
00000230: 9500 8138 ebdd 9939 81ff ba39 9472 f538
00000240: e1a0 8b38 a7dc b638 7a32 d738 6cb8 7238
00000250: 0e29 a338 5a16 0239 d026 7e37 50d5 0638
00000260: 3788 b638 bb65 a639 9845 b739 6423 9c39
00000270: a0e1 d839 72fc 113a e982 1b3a c978 af38
00000280: 4e47 1d39 f190 9d39 8fa0 7a39 77b1 a539
00000290: b185 013a 2659 2537 b1f0 e137 0880 bd38
000002a0: a4b3 8138 436b 0d39 e6ff 7339 2ce0 3439
000002b0: 7367 7039 881e ab39 248f c237 e8c6 0e38
000002c0: 5aa4 de38 8999 3137 1572 8d37 3ff8 3a38
000002d0: 3417 3839 ea5d 2139 28be c239 d448 8238
000002e0: ef2b e137 ea12 1a39 2906 3738 a34c 4937
000002f0: 3e33 d838 919d e339 06e4 c039 1935 da39
00000300: 85ac c439 1cb3 9939 e906 cc39 3ee6 2c38
00000310: a8ec 0938 df24 3639 62d1 c438 88dd 6b39
00000320: b521 b339 1f9c d637 91fa 3c39 245e bd39
00000330: e6f6 9c37 5df6 4039 72ef d739 0137 0539
00000340: 879d 5139 f5a5 9d39 eea4 bf37 c4ad 6738
00000350: cbba 8b39 7b5f db35 f1f4 5036 9243 da38
00000360: 39cc 3f38 8508 9138 5372 b238 7417 9a38
00000370: 3298 b838 1a92 1939 81ea f538 ce75 2039
00000380: 7b78 3139 db82 be38 02f1 9238 889d c838
00000390: 4824 8138 02b5 c438 071f 5839 3bc2 0a39
000003a0: d44b 5639 018e 9439 e179 4839 2a85 dc39
000003b0: 15d0 0b3a 6975 0f3a e346 113a 2b38 ac39
000003c0: 8a42 133a 13b9 6d39 edd9 3d39 8126 3d38
000003d0: 1144 a738 bb31 3639 ef41 1f39 3d4f 3a39
000003e0: 3dba 4f39 02c4 6039 df18 2339 315b 6239
000003f0: 81a0 ec38 7dde 5d38 123b 093a 53f5 b738

exp_avg f4 [16]
-0.0036144918 0.008859989 -0.003340221 0.0028911782 0.0062024067 0.0020317829 0.0024825148 0.009050701
0.0040964503 0.0009772754 0.005539417 -0.0014386692 0.0006153921 -0.005278851 0.0016865509 0.005550157
00000000: 1ce1 6cbb 7d29 113c 9ce7 5abb ec79 3d3b
00000010: 8f3d cb3b a927 053b b0b1 223b 6449 143c
00000020: 843b 863b ec17 803a ff83 b53b ba91 bcba
00000030: 4452 213a 36fa acbb 420f dd3a 17de b53b

exp_avg_sq f4 [16]
0.0006730866 0.00026443176 0.000356285 0.00034800265 0.0003142499 0.00059200474 0.0004511913 0.00043632367
0.0002588182 0.0001983541 0.00025380016 0.00029572984 0.0002145629 0.00027999788 0.00055353175 0.00044316117
00000000: 1472 303a 6ea3 8a39 c3cb ba39 2074 b639
00000010: e8c1 a439 c430 1b3a df8d ec39 5fc2 e439
00000020: feb1 8739 46fd 4f39 7b10 8539 300c 9b39
00000030: 4afc 6039 aecc 9239 e31a 113a 1658 e839

exp_avg f4 [32, 16, 3, 3]
-0.021282846 -0.028317962 -0.031128015 0.0016202272 0.0044123624 -0.0076055913 -0.0049779513 -0.0009390924
0.00072795106 0.003328174 0.008547641 0.0034678886 0.0022970005 0.0024931757 -0.00051433215 0.007870278
0.0025220169 -0.0049577584 0.002571953 -0.0010626517 -0.0010113287 -0.009137832 -0.011732652 0.00073581166
-0.011555447 -0.002925745 0.0022068287 -0.0016876557 0.003499981 -0.0005842964 0.0016936001 0.00037004237
7.883965e-05 0.0063988427 -0.010485723 -0.003844544 0.0031711166 -0.0012074742 -0.004815947 -0.00507212
-0.0019238835 -0.0002693227 -0.0011760335 0.00037383384 0.0007058995 0.005048454 0.0011939419 0.006309913
0.00025633766 -0.00040143565 0.005121263 0.005851819 0.000459637 0.0020016332 -0.0032344318 -0.0052182237
-0.0024195754 -0.01595289 -0.0140292775 -0.01074307 -0.0043307585 -0.0001808139 -0.00020426926 -0.0031011032
0.0015545557 -0.001579239 -0.012507528 -0.009451288 -0.0018456477 0.0042886566 -0.01233866 -0.012501751
-0.00016851394 0.00027073498 2.2635773e-05 -0.0035382162 -0.0028510913 -0.00028614572 0.0007442271 -0.005804442
-0.0064724013 0.003102862 0.005701999 0.0008140586 -0.00026633046 0.004559593 0.00033544246 0.0030056073
0.0017936894 -0.0018538056 0.0006636942 -9.974152e-05 0.012773044 0.00083762297 0.0015535686 0.009369792
-0.0060967715 0.00033951513 0.0019638096 -0.002641053 0.002687442 -0.0025865533 0.0045172707 0.0014092427
-0.0015412989 -0.0061711 -0.011175253 -0.009982039 0.0033702988 0.0052556302 -0.00031996364 0.0050459113
0.003025044 -0.019155283 0.0030208607 0.0010349236 -0.0124621885 -0.0024821332 -0.0075636227 -0.0063942405
-0.006505597 -0.012135687 -0.009470672 0.000113029935 -0.0040261894 0.001897447 -8.824367e-05 -0.0008717181
-0.0038374295 -0.012945574 -0.010978029 -0.010938927 -0.005895551 -0.0026458048 -0.0013141079 -0.0061609177
-0.010172608 -0.0063710585 -0.009050213 -0.004920207 -0.008043181 0.0016165092 -4.335243e-05 -0.0015426675
-0.0058332565 -0.007529164 -0.0047981925 3.7325644e-05 -5.901551e-05 -0.0022964666 -0.0020933049 -0.0011828998
0.00075710757 -0.0016958002 -0.0019277139 -0.0012326215 -0.0034350387 -0.0039432184 -0.002255327 -0.00077776506
-0.0044868537 -0.0014010746 0.0015211883 -0.0009782995 -0.0012768913 -0.0019325943 -0.0014292144 -0.00013757839
-0.00351271 -0.0024739017 0.0003886734 -0.0026273034 6.684229e-05 -9.8083176e-05 -0.0010760995 0.00095236144
0.00012936672 0.00081233325 -0.0010410547 -9.569036e-06 -0.0021984002 -0.0029439998 -0.001736623 -0.0023537157
-0.0007888066 -0.00027478568 -0.0025278088 -0.00026254755 -5.9506805e-05 0.000109657936 -0.0021180676 -0.0014873028
-0.00088587933 -0.003312095 -0.002611932 -0.0013133872 -0.0032458112 -0.0024231535 -0.0012399111 -0.0016810487
-0.00025051128 -0.004138062 -0.0025503142 -0.0015431336 -0.0027083503 -4.22929e-06 5.809859e-05 -0.0039147325
-0.0011263735 1.2243404e-06 -0.003249882 -0.0005658607 -0.00023701675 0.00015641269 -0.0008290699 -0.0017611695
-0.0011599056 0.00017179339 0.00027813096 -0.0024287114 -0.00049981667 0.00013142392 0.00042941867 -0.00076652516
-0.00095106225 -0.0011946129 -5.4670883e-05 1.232072e-06 -0.003941607 -0.0011159042 4.019376e-05 -0.0024630537
-0.0011495143 -0.000798749 0.0011820436 -0.00059890136 -0.0015744035 -0.00037691492 -0.0012087766 -0.0018887066
-0.0032108908 -0.0028615023 -0.0010315145 -0.0026212318 -0.0004054614 -0.00038745638 -0.0016405459 0.0001903261
0.00023519366 -0.0020996144 -0.0024837377 -0.0014600407 -0.0026891315 -0.0007795477 -8.793357e-05 -0.0027546394
00000000: 5d59 aebc 12fb e7bc 2e00 ffbc ce5d d43a
00000010: 9495 903b 5338 f9bb 151e a3bb 6d2d 76ba
00000020: f8d3 3e3a 7e1d 5a3b 680b 0c3c 8445 633b
00000030: 4689 163b 8c64 233b 3fd4 06ba 57f2 003c
00000040: 6c48 253b b174 a2bb 368e 283b ad48 8bba
00000050: 8f8e 84ba d8b6 15bc 4f3a 40bc 7ce3 403a
00000060: 0f53 3dbc dbbd 3fbb 71a0 103b 5434 ddba
00000070: f05f 653b 782b 19ba cafb dd3a 3f02 c239
00000080: b756 a538 62ad d13b 4fcc 2bbc bff4 7bbb
00000090: 82d2 4f3b 1c44 9eba 17cf 9dbb 0734 a6bb
000000a0: d12a fcba e233 8db9 2325 9aba 21ff c339
000000b0: 1d0c 393a 806d a53b 0b7e 9c3a 63c3 ce3b
000000c0: 0f65 8639 c877 d2b9 45d0 a73b 9ec0 bf3b
000000d0: 6ffb f039 d52d 033b c3f8 53bb a2fd aabb
000000e0: bd91 1ebb a3af 82bc 0edb 65bc b403 30bc
000000f0: 09e9 8dbb dd98 3db9 1d31 56b9 e13b 4bbb
00000100: 3cc2 cb3a 78fe ceba 60ec 4cbc 93d9 1abc
00000110: a9e9 f1ba dc87 8c3b 1728 4abc 25d4 4cbc
00000120: 1eb3 30b9 6ff1 8d39 f4e1 bd37 6be1 67bb
00000130: 60d9 3abb d405 96b9 3c18 433a 3033 bebb
00000140: 7016 d4bb 6359 4b3b d6d7 ba3b 8c66 553a
00000150: 45a2 8bb9 a368 953b 53de af39 b9f9 443b
00000160: 3b1a eb3a 65fb f2ba c4fb 2d3a 522c d1b8
00000170: 0846 513c ed93 5b3a 1da1 cb3a c283 193c
00000180: 6dc7 c7bb f300 b239 42b3 003b 8415 2dbb
00000190: cb1f 303b 2a83 29bb 9d05 943b 57b6 b83a
000001a0: 6905 caba f036 cabb 6918 37bc b58b 23bc
000001b0: 3be0 5c3b 6c37 ac3b cbc0 a7b9 2c58 a53b
000001c0: d13f 463b 8aeb 9cbc a2f9 453b 46a6 873a
000001d0: 352e 4cbc 49ab 22bb 44d8 f7bb c786 d1bb
000001e0: e72c d5bb c3d4 46bc e12a 1bbc 7c0a ed38
000001f0: 20ee 83bb c2b3 f83a 760f b9b8 0384 64ba
00000200: 627d 7bbb ac19 54bc 31dd 33bc 2f39 33bc
00000210: 772f c1bb 3d65 2dbb 253e acba 86e1 c9bb
00000220: 03ab 26bc 50c4 d0bb 5847 14bc b039 a1bb
00000230: 8cc7 03bc 0ce1 d33a 51d5 35b8 5533 caba
00000240: e724 bfbb 35b7 f6bb 283a 9dbb 1b8e 1c38
00000250: 6c87 77b8 5180 16bb d42f 09bb 880b 9bba
00000260: a178 463a 9d45 deba 58ab fcba ea8f a1ba
00000270: 631e 61bb 1d36 81bb 1cce 13bb eee2 4bba
00000280: 7506 93bb 43a4 b7ba 9c62 c73a 493a 80ba
00000290: 5d5d a7ba 1b4f fdba 7a54 bbba eb42 10b9
000002a0: 7f35 66bb 2f21 22bb dcc6 cb39 d62e 2cbb
000002b0: ae2d 8c38 01b2 cdb8 e80b 8dba e5a7 793a
000002c0: 9da6 0739 c3f2 543a 0074 88ba b28a 20b7
000002d0: 0913 10bb 1ff0 40bb 669f e3ba cc40 1abb
000002e0: eac7 4eba 1c11 90b9 98a9 25bb 89a6 89b9
000002f0: f296 79b8 28f8 e538 47cf 0abb 9af1 c2ba
00000300: 5b3a 68ba bc0f 59bb f32c 2bbb f625 acba
00000310: adb7 54bb c5cd 1ebb 8384 a2ba a256 dcba
00000320: 0e57 83b9 9498 87bb 2c23 27bb f942 caba
00000330: 947e 31bb 53e9 8db6 e3ae 7338 2847 80bb
00000340: d3a2 93ba 0454 a435 f9fb 54bb 4556 14ba
00000350: b387 78b9 b602 2439 f055 59ba 0bd7 e6ba
00000360: f907 98ba 7023 3439 1bd2 9139 042b 1fbb
00000370: 2106 03ba d7ce 0939 9923 e139 a2f0 48ba
00000380: b550 79ba 8f94 9cba 6a4e 65b8 ac5d a535
00000390: 9928 81bb 8843 92ba b995 2838 2f6b 21bb
000003a0: 4dab 96ba 2363 51ba cdee 9a3a 97ff 1cba
000003b0: 375c ceba aa9c c5b9 d06f 9eba 7a8e f7ba
000003c0: cf6d 52bb 0b88 3bbb e233 87ba f9c8 2bbb
000003d0: 1c94 d4b9 8423 cbb9 9607 d7ba 4692 4739
000003e0: 519e 7639 af99 09bb 34c6 22bb d65e bfba
000003f0: 243c 30bb 905a 4cba fa68 b8b8 2e87 34bb
