assignments/assignment_1/code/code/mnist-classifier/best-mlp.pth (torch, 308801 bytes, 12 tensors)

layers.0.weight f4 [32, 784]
-0.0049484214 0.014004961 0.048650797 -0.016241718 0.052301142 0.039149236 0.04091529 0.051108453
0.016576614 0.0039112107 0.051831912 -0.0130866915 0.021580977 0.049484324 0.010682719 -0.011503942
0.01376652 0.04767554 -0.016643587 -0.0009808459 0.041393716 -0.006959674 0.022506367 0.016578276
0.036472093 0.03395166 -0.0064605763 -0.001875205 0.017361362 0.03960352 0.040262524 0.047409046
0.029022269 0.036386807 0.031358305 0.027255125 -0.012118736 0.051125374 0.026128592 0.008497436
0.05258032 -0.0113383625 0.05477446 -0.008569889 -0.014712852 0.047960777 0.009492278 0.03194403
0.051808003 0.01802433 0.0011488484 -0.003890921 0.02129193 0.020960916 0.042426664 0.050972644
0.022976652 0.045799535 0.017103728 0.0019201591 0.022819275 -0.004367468 0.022649098 0.019555852
0.039979525 -0.007023423 0.027849153 0.024676956 -0.009673119 0.045515925 0.0077282605 -0.007180423
0.038773008 0.00873194 0.050446082 0.06262723 0.038595498 0.0038294364 0.06217908 0.015068448
0.037764765 -0.015052176 0.009583991 0.03861208 0.0008710413 -0.00766079 0.015603096 0.006472593
0.037767664 -0.019158002 0.014516151 0.015541862 0.011384903 -0.039433297 -0.08777214 -0.13082242
-0.19200183 -0.20761347 -0.2056882 -0.19054818 -0.17539781 -0.11700472 -0.06635217 0.0010233247
-0.024037993 0.06546742 0.08604934 0.046362847 0.024453063 0.0010086718 0.042371918 0.022295479
0.010233292 0.047639284 0.049719494 0.035473764 0.015253275 0.00044461462 -0.034737837 -0.04005317
-0.1689333 -0.28053272 -0.35931677 -0.35265815 -0.32988286 -0.28729928 -0.22714202 -0.24153984
-0.18046764 -0.07723596 -0.07246852 0.025752388 0.118038766 0.12536317 0.14701323 0.0570836
0.04268089 0.045381255 0.02067265 0.005519778 0.037552748 0.03940564 -0.00022016693 0.0011840886
-0.033892807 -0.05538468 -0.14362182 -0.14894626 -0.22577225 -0.2522073 -0.30288595 -0.13331999
-0.13713284 -0.016518386 -0.059064757 -0.10461642 -0.23509692 -0.0891274 -0.05112991 0.0337834
0.07628831 0.14177641 0.10242129 0.083430655 0.002808051 0.013298776 0.03291576 0.020402757
0.05188338 0.0522486 -0.004545474 0.01898422 -0.0124585545 -0.082934916 -0.117582664 -0.17116874
-0.23558529 -0.26354274 -0.16486207 0.04670955 0.03237158 0.024286028 0.06983697 0.048291225
0.060079638 0.20868793 0.17195795 0.14759068 0.101523586 0.076368555 0.0645248 -6.6307286e-05
-0.02739625 -0.03177962 0.025794283 0.011165639 -0.0021629133 0.03806024 -0.013431368 -0.0171949
-0.09887053 -0.2113552 -0.17061816 -0.16567287 -0.2326495 -0.09535752 0.067825265 0.09525263
0.17777799 0.1668717 0.042137567 0.1842619 0.24122791 0.34703538 0.21900193 0.14766583
0.07129751 0.13321318 0.020719633 0.09871074 -0.044426933 -0.04651375 -0.047635302 0.03938227
0.0019850826 -0.005325322 0.027709894 0.019217173 -0.09973343 -0.14452034 -0.1168621 -0.18269376
-0.057968896 0.024720725 -0.038534258 0.011860533 0.09176325 0.08242338 0.16248669 0.12313961
0.08429348 0.028871484 0.09785619 -0.033933263 -0.06910612 0.0013481998 -0.01688214 0.04540192
-0.0003736845 -0.11351094 -0.038260818 -0.010150277 0.0015198595 0.010125876 0.03230799 -0.024545679
00000000: 5e26 a2bb 1075 653c 0f46 473d 5a0d 85bc
00000010: b939 563d f35a 203d cb96 273d 1957 513d
00000020: aecb 873c 9d29 803b b34d 543d 9069 56bc
00000030: 97ca b03c 13b0 4a3d 9206 2f3c 087b 3cbc
00000040: f88c 613c 6d47 433d 2258 88bc ba8f 80ba
00000050: 758c 293d fa0d e4bb 465f b83c 2acf 873c
00000060: c363 153d e510 0b3d 3eb3 d3bb 70c9 f5ba
00000070: 6a39 8e3c 4d37 223d 51ea 243d fd2f 423d
00000080: 1cc0 ed3c 550a 153d 9171 003d 2446 df3c
00000090: aa8d 46bc d768 513d a10b d63c d438 0b3c
000000a0: 765e 573d 8ac4 39bc 2f5b 603d b868 0cbc
000000b0: 2d0e 71bc 8572 443d 8085 1b3c bed7 023d
000000c0: a134 543d c2a7 933c f594 963a d2fe 7ebb
000000d0: 6a6c ae3c 3ab6 ab3c 95c7 2d3d b1c8 503d
000000e0: 8839 bc3c 4b98 3b3d 1e1d 8c3c d9ad fb3a
000000f0: 7def ba3c fa1c 8fbb 9a8a b93c 9833 a03c
00000100: 92c1 233d be24 e6bb e823 e43c 5427 ca3c
00000110: 007c 1ebc e86e 3a3d 593d fd3b c149 ebbb
00000120: 72d0 1e3d 6910 0f3c 8da0 4e3d b542 803d
00000130: 5016 1e3d 48f7 7a3b 7eaf 7e3d a7e1 763c
00000140: 3aaf 1a3d 679d 76bc 2c06 1d3c b327 1e3d
00000150: 9856 643a 5d07 fbbb 21a4 7f3c 0c18 d43b
00000160: 44b2 1a3d 3ef1 9cbc 26d5 6d3c 4ba3 7e3c
00000170: bf87 3a3c cf84 21bd e1c1 b3bd 50f6 05be
00000180: 219c 44be a098 54be ed9f 52be 101f 43be
00000190: 7c9b 33be 2ca0 efbd a6e3 87bd 1421 863a
000001a0: 53eb c4bc c813 863d a33a b03d f8e6 3d3d
000001b0: ca51 c83c 6935 843a 2d8e 2d3d 02a5 b63c
000001c0: 8aa9 273c 6921 433d aba6 4b3d f04c 113d
000001d0: dfe8 793c 2a1b e939 4349 0ebd cb0e 24bd
000001e0: dafc 2cbe fca1 8fbe 5ef8 b7be 9c8f b4be
000001f0: 68e6 a8be e418 93be eb97 68be 3856 77be
00000200: 82cc 38be e32d 9ebd 606a 94bd acf6 d23c
00000210: 4fbe f13d 345f 003e a38a 163e 7ed0 693d
00000220: 28d2 2e3d b2e1 393d b059 a93c 41df b43b
00000230: e9d0 193d cf67 213d 9cdc 66b9 6c33 9b3a
00000240: 2fd3 0abd 0cdb 62bd 9911 13be 5e85 18be
00000250: d730 67be 5121 81be de13 9bbe 0985 08be
00000260: 8d6c 0cbe 9151 87bc e3ed 71bd 2241 d6bd
00000270: 3fbd 70be 6d88 b6bd 996d 51bd 7660 0a3d
00000280: 0c3d 9c3d d62d 113e 41c2 d13d b1dd aa3d
00000290: 4707 383b 1ce3 593c add2 063d af23 a73c
000002a0: ab83 543d a102 563d 33f2 94bb cc84 9b3c
000002b0: f71e 4cbc c8d9 a9bd 2ecf f0bd dc46 2fbe
000002c0: 453d 71be 13ef 86be 9ad1 28be 8352 3f3d
000002d0: 1098 043d 7ef3 c63c af06 8f3d 05cd 453d
000002e0: 1116 763d 4ab2 553e bf15 303e 0322 173e
000002f0: 99eb cf3d 1e67 9c3d 9425 843d 740e 8bb8
00000300: 1a6e e0bc 592b 02bd 884e d33c 16f0 363c
00000310: aabf 0dbb 0ee5 1b3d 3e0f 5cbc 52dc 8cbc
00000320: a27c cabd 7f6d 58be 87b6 2ebe 26a6 29be
00000330: ac3b 6ebe ce4a c3bd f9e7 8a3d d013 c33d
00000340: 6f0b 363e 6ae0 2a3e 7198 2c3d 27af 3c3e
00000350: 7304 773e 9fae b13e 0b42 603e b635 173e
00000360: 6e04 923d 0969 083e 38bc a93c db28 ca3d
00000370: 04f9 35bd 3485 3ebd 3c1d 43bd 4e4f 213d
00000380: 2918 023b 0a80 aebb dcff e23c 556d 9d3c
00000390: 0a41 ccbd 24fd 13be 6655 efbd 1314 3bbe
000003a0: cb70 6dbd 1e83 ca3c 19d6 1dbd ae52 423c
000003b0: 5fee bb3d 97cd a83d e962 263e 9f30 fc3d
000003c0: 0fa2 ac3d e483 ec3c d368 c83d 9bfd 0abd
000003d0: 8287 8dbd 14b6 b03a 6a4c 8abc 5df7 393d
000003e0: 16eb c3b9 6c78 e8bd 60b7 1cbd 594d 26bc
000003f0: 0636 c73a 01e7 253c 6255 043d 0514 c9bc

layers.0.bias f4 [32]
-0.0119891185 -0.06810308 0.013701718 0.016080733 0.0052136886 -0.007564123 0.0013106492 0.022336118
0.053713437 0.010419054 -0.030510645 -0.02070161 -0.030730931 0.02100367 -0.0038375608 0.0033108105
0.0046515753 0.009954185 0.0031900923 -0.020639172 -0.046827745 -0.0072400467 -0.0020431047 0.0041099307
0.008750953 -0.0022907602 -0.025315909 0.0039646123 -0.0112715205 0.0017297815 0.06896184 -0.01909129
00000000: 026e 44bc a179 8bbd 2c7d 603c bebb 833c
00000010: 97d7 aa3b 76dc f7bb 17ca ab3a 3cfa b63c
00000020: 9f02 5c3d aeb4 2a3c 76f1 f9bc 6c96 a9bc
00000030: 6fbf fbbc e30f ac3c 967f 7bbb 2ffa 583b
00000040: 3e6c 983b e116 233c de10 513b 7b13 a9bc
00000050: 73ce 3fbd ea3d edbb 9ce5 05bb 99ac 863b
00000060: 2860 0f3c 9420 16bb 4f63 cfbc 94e9 813b
00000070: 2fac 38bc d6b9 e23a dd3b 8d3d 5665 9cbc

layers.2.weight f4 [10, 32]
0.04515373 -0.14792131 0.18277918 -0.08296473 0.04101509 0.2732453 -0.10501209 -0.3310334
-0.06169849 0.041554887 0.035648007 0.04747921 0.011691474 0.08313596 -0.11751921 0.12790227
0.07123214 0.15808788 0.0016963752 -0.15928605 0.06697596 0.033047345 0.12924752 0.3629255
0.032069225 0.13936986 0.16939488 -0.2587178 -0.11817476 0.10546811 -0.43036875 0.13999966
0.090737715 0.3953445 0.022846056 0.0195621 0.022195032 0.011628115 -0.10670883 0.22244455
-0.40204307 0.11033648 0.005558064 0.144977 0.073307805 -0.048931357 0.06495472 -0.10632384
-0.28696263 -0.101341926 -0.08057895 0.12984961 0.20104945 0.08082532 0.062849 -0.071389474
0.013464208 -0.16854717 0.037273683 0.16854933 -0.42965993 -0.1294901 -0.0853282 -0.16857244
-0.25946766 0.10401023 -0.10679351 -0.15587531 -0.08275362 0.20956516 0.12720804 0.06422226
-0.18605952 -0.05782054 -0.07489862 -0.07820404 0.2866229 0.07709433 0.18248133 -0.0014130515
-0.23984244 0.01780843 0.11135699 -0.102088295 0.18768185 -0.06189462 -0.07973327 0.38202193
0.100429006 -0.014866378 0.07170042 -0.43213838 0.14228296 -0.008852551 0.1066635 -0.11310067
-0.33330616 0.063123986 0.15490215 -0.02189885 0.1101813 0.11769487 0.07103879 0.049681045
0.07764994 -0.047454137 -0.014279213 0.013082902 -0.24622701 -0.1701864 0.13311914 -0.090486154
0.09711404 -0.09645709 -0.030393397 0.021968234 0.19090337 0.112881266 -0.08853339 0.020354906
0.08201804 -0.063444525 0.13349816 0.0959152 -0.2923392 0.03847016 0.16162969 0.1558407
0.005935074 0.04435206 0.10733775 -0.020264508 -0.09563666 -1.2548162 0.1772542 0.19515008
-0.015922002 -0.009127531 -0.14959127 -0.0029689916 -0.044184536 -0.04476606 -0.05850146 -0.21327896
0.055561125 -0.0025085274 -0.057502497 0.058081243 -0.2341194 0.114945464 0.12695163 -0.4312692
0.12635049 -0.16138601 -0.061524935 -0.047024604 0.2851119 -0.16341956 -0.03559166 -0.1092944
-0.105064034 -0.19047804 0.052451167 -0.15399384 -0.11970567 0.37506342 0.14820723 0.030425595
-0.084500976 0.16761148 0.03266713 0.024635626 -0.27019206 0.0069533917 0.13157266 0.16773489
0.06665177 -0.12784441 -0.050758712 0.05610349 -0.37354264 0.028066922 0.024848256 -0.21851857
0.10399536 0.12724252 -0.07990088 0.24086861 0.100981176 -0.08225266 -0.107737735 0.019837545
-0.06470666 -0.00062834367 -0.10069608 -0.09088968 -0.010858002 -0.04516179 0.079714656 0.076448284
0.24113496 0.045915056 0.048453376 -0.022964181 0.2081398 0.12541023 0.02227696 0.18390736
-0.48556852 0.048181083 -0.026203746 -0.06959692 -0.019889051 -0.09576094 -0.055759642 -0.1492357
-0.13274063 -0.11383064 -0.01771679 -0.170694 0.051072393 -0.16141261 -0.496254 -0.10167073
0.19479996 0.14115839 -0.060089696 0.15176344 0.17945307 -0.08536147 0.06502244 -0.31057408
-0.20186941 0.16545995 -0.015506738 0.06408105 -0.013834566 0.15914026 -0.12047957 -0.28099215
0.17854804 0.15430059 0.00445369 0.04123925 0.315205 0.010914808 0.029373256 -0.09521309
-0.16216436 0.031789172 0.15291372 -0.12050687 0.040225644 -0.0071336417 0.23137665 -0.122855
00000000: 1ef3 383d af78 17be 772a 3b3e 6ae9 a9bd
00000010: 70ff 273d cfe6 8b3e 9410 d7bd 367d a9be
00000020: 8eb7 7cbd 7535 2a3d a503 123d 8f79 423d
00000030: 998d 3f3c 3043 aa3d e9ad f0bd d0f8 023e
00000040: 28e2 913d cae1 213e e858 de3a e21b 23be
00000050: b12a 893d a75c 073d 7659 043e 5fd1 b93e
00000060: 055b 033d f9b6 0e3e da75 2d3e a976 84be
00000070: 9c05 f2bd aaff d73d 4b59 dcbe 125c 0f3e
00000080: b2d4 b93d 986a ca3e a727 bb3c b240 a03c
00000090: 5bd2 b53c d983 3e3c 298a dabd 81c8 633e
000000a0: 97d8 cdbe 18f8 e13d 6c20 b63b da74 143e
000000b0: 6722 963d 3f6c 48bd fb06 853d 50c0 d9bd
000000c0: c4ec 92be 5b8c cfbd 9406 a5bd 4cf7 043e
000000d0: e8df 4d3e bf87 a53d fab6 803d a534 92bd
000000e0: fb98 5c3c a197 2cbe 4aac 183d 3298 2c3e
000000f0: 63fc dbbe 0e99 04be 8dc0 aebd 419e 2cbe
00000100: f2d8 84be 5103 d53d 8eb6 dabd c79d 1fbe
00000110: bb7a a9bd 4098 563e d342 023e f686 833d
00000120: 6386 3ebe 3bd5 6cbd 7364 99bd 7129 a0bd
00000130: 3dc0 923e a2e3 9d3d 63dc 3a3e 2436 b9ba
00000140: 4299 75be fce2 913c 220f e43d ab13 d1bd
00000150: ac2f 403e 3785 7dbd 324b a3bd 6198 c33e
00000160: b9ad cd3d 1c92 73bc abd7 923d 3e41 ddbe
00000170: a0b2 113e 4a0a 11bc 6572 da3d 53a1 e7bd
00000180: 1ba7 aabe 2647 813d ab9e 1e3e 3865 b3bc
00000190: bca6 e13d 020a f13d c97c 913d 5a7e 4b3d
000001a0: ef06 9f3d 455f 42bd 5cf3 69bc ab59 563c
000001b0: ef22 7cbe 5845 2ebe 6250 083e ce50 b9bd
000001c0: bae3 c63d 4b8b c5bd 93fb f8bc baf6 b33c
000001d0: 2c7c 433e 4b2e e73d fe50 b5bd 55bf a63c
000001e0: 13f9 a73d 34ef 81bd beb3 083e 306f c43d
000001f0: 7cad 95be e392 1d3d 4182 253e b494 1f3e
00000200: 027b c23b 81aa 353d e5d3 db3d c101 a6bc
00000210: 27dd c3bd d19d a0bf 2082 353e 6cd5 473e
00000220: dc6e 82bc a48b 15bc 742e 19be 6a93 42bb
00000230: d8fa 34bd 9e5c 37bd 3a9f 6fbd cd65 5abe
00000240: 1094 633d 1b66 24bb bd87 6bbd 99e6 6d3d
00000250: ffbc 6fbe 8768 eb3d 9cff 013e 51cf dcbe
00000260: 0662 013e 6042 25be 9201 7cbd df9c 40bd
00000270: 30fa 913e 7557 27be 8fc8 11bd bed5 dfbd
00000280: d02b d7bd ad0c 43be 09d7 563d 90b0 1dbe
00000290: 3f28 f5bd 5008 c03e a3c3 173e 193f f93c
000002a0: d90e adbd 58a2 2b3e f8cd 053d a7d0 c93c
000002b0: 9d56 8abe 47d9 e33b fcba 063e b2c2 2b3e
000002c0: b980 883d a5e9 02be 5ee8 4fbd c6cc 653d
000002d0: fb40 bfbe 9aec e53c 928e cb3c 55c3 5fbe
000002e0: 85fb d43d dd4b 023e 13a3 a3bd 43a6 763e
000002f0: 38cf ce3d 1574 a8bd 9aa5 dcbd 5982 a23c
00000300: ed84 84bd 6eb7 24ba bf39 cebd 5e24 babd
00000310: c3e5 31bc 92fb 38bd 7041 a33d eb90 9c3d
00000320: 15ec 763e 6d11 3c3d 0c77 463d 611f bcbc
00000330: 9a22 553e 8a6b 003e 2c7e b63c 3652 3c3e
00000340: 709c f8be 8759 453d 3da9 d6bc d488 8ebd
00000350: 5dee a2bc 501e c4bd 3964 64bd 3ed1 18be
00000360: 29ed 07be 0a20 e9bd cd22 91bc 68ca 2ebe
00000370: 4931 513d 5949 25be 0115 febe be38 d0bd
00000380: a479 473e d38b 103e 9d20 76bd e067 1b3e
00000390: 8cc2 373e ffd1 aebd 7c2a 853d 9103 9fbe
000003a0: dbb6 4ebe 556e 293e f90f 7ebc ed3c 833d
000003b0: 60aa 62bc aaf5 223e febd f6bd 34de 8fbe
000003c0: 4cd5 363e f900 1e3e 42f0 913b 7dea 283d
000003d0: 8d62 a13e 06d4 323c 2fa0 f03c 15ff c2bd
000003e0: 6a0e 26be 5d35 023d 6a95 1c3e 4ecc f6bd
000003f0: a5c3 243d 53c1 e9bb 00ee 6c3e 679b fbbd

layers.2.bias f4 [10]
-0.36040205 -0.025166163 -0.0042588483 0.05879863 0.09127598 0.20276041 -0.06927033 -0.040921837
0.14430287 0.19265825
00000000: 9e86 b8be 4529 cebc cf8d 8bbb d5d6 703d
00000010: e7ee ba3d 6da0 4f3e 9add 8dbd a89d 27bd
00000020: 22c4 133e 3448 453e

exp_avg f4 [32, 784]
-0.0036720335 -0.0036720335 -0.0036720335 -0.0036720335 -0.0036720335 -0.0036720335 -0.0036720335 -0.0036720335
-0.0036720335 -0.0036720335 -0.0036720335 -0.0036720335 -0.0036720335 -0.0036720335 -0.0036720335 -0.0036720335
-0.0036720335 -0.0036720335 -0.0036720335 -0.0036720335 -0.0036720335 -0.0036720335 -0.0036720335 -0.0036720335
-0.0036720335 -0.0036720335 -0.0036720335 -0.0036720335 -0.0036720335 -0.0036720335 -0.0036720335 -0.0036720335
-0.0036720335 -0.0036720335 -0.0036720335 -0.0036720335 -0.0036720335 -0.0036720335 -0.0036720335 -0.0036720335
-0.0036720335 -0.003672034 -0.003672034 -0.003672034 -0.0036720335 -0.0036720335 -0.0036720675 -0.0036723278
-0.0036725232 -0.0036722403 -0.0036720335 -0.0036720335 -0.0036720335 -0.0036720335 -0.0036720335 -0.0036720335
-0.0036720335 -0.0036720335 -0.0036720335 -0.0036720335 -0.0036719437 -0.0036720245 -0.0036720335 -0.0036759248
-0.0036730175 -0.0036720335 -0.0036719586 -0.0036713148 -0.003671583 -0.003672058 -0.0036686251 -0.0036468378
-0.003651391 -0.0036395495 -0.0036711975 -0.0036732275 -0.0036729623 -0.0036721062 -0.0036656675 -0.0036716321
-0.0036720335 -0.0036720335 -0.0036720335 -0.0036720335 -0.0036720335 -0.0036720335 -0.0036720335 -0.0036720335
-0.0036720245 -0.0036720322 -0.0036720335 -0.0036768867 -0.003672034 -0.003671513 -0.003674059 -0.0036844995
-0.0037108893 -0.003812892 -0.0037980697 -0.003758331 -0.003995572 -0.0043409285 -0.0036722878 -0.0032151768
-0.0032764473 -0.0037122269 -0.0036896397 -0.0036725884 -0.0036734208 -0.0036720335 -0.0036720335 -0.0036720335
-0.0036720335 -0.0036720335 -0.0036720335 -0.0036720335 -0.0036720335 -0.0036720075 -0.003585024 -0.0035049825
-0.0034348343 -0.0021421912 -0.0015602747 -0.00158984 -0.0028336877 -0.0037175256 -0.003923272 -0.0037586463
-0.0052735168 -0.004920593 -0.0031519053 -0.0031618108 -0.0034736139 -0.0038048713 -0.003652949 -0.0036551673
-0.0036732382 -0.0036720461 -0.0036720335 -0.0036720335 -0.0036720335 -0.0036720335 -0.0036720335 -0.0036706412
-0.0036695416 -0.0036422655 -0.0032787055 -0.003122345 -0.0027491902 -0.00074553536 -0.0007636899 -0.0018296795
-0.0012350462 -0.0029062382 -0.0023748304 -0.0032822613 -0.0064872396 -0.0060239183 -0.004983882 -0.0062063923
-0.0022908924 -0.002814903 -0.003815052 -0.0036935704 -0.003655129 -0.0036723635 -0.0036721027 -0.0036720335
-0.0036720335 -0.0036720335 -0.0036720335 -0.0036593948 -0.0036549252 -0.0034756032 -0.0031666483 -0.00316687
-0.0028352672 -0.0010797356 -0.00363089 -0.004502674 -0.0033496597 -0.0012248091 0.00014073009 0.0002850221
-0.0016557858 -0.0026226945 -0.0036380212 -0.004004249 -0.0014934563 -0.002595411 -0.003374811 -0.0038557663
-0.0036117726 -0.0036689183 -0.0036723115 -0.0036720189 -0.0036720335 -0.0036720335 -0.003672035 -0.0036566507
-0.0036590372 -0.0036712415 -0.0042530117 -0.0029289962 -0.001149302 -0.0013786901 -0.0043223766 -0.003687129
-0.0009652174 0.0001589771 0.001938117 0.0036970424 0.0009257577 0.00014870569 0.0010929347 -0.001120684
-0.0018454937 -0.002896365 -0.0045993906 -0.00418596 -0.003692849 -0.003679623 -0.0036715341 -0.0036720322
-0.0036720335 -0.0036720883 -0.003711537 -0.0037131568 -0.0037208686 -0.003976819 -0.0023374453 -0.0006581037
0.0013981643 0.0019057421 -0.0009584241 -0.0028644835 0.0012492081 0.002609407 0.0038761108 0.0010624845
0.0009692429 0.0011451272 0.0020057817 0.0015437416 -0.0017766972 -0.0028014376 -0.0042863255 -0.003997181
-0.0036851077 -0.0036219743 -0.0036716522 -0.0036720335 -0.0036720335 -0.0036720335 -0.0037163591 -0.0037200227
00000000: 80a6 70bb 80a6 70bb 80a6 70bb 80a6 70bb
00000010: 80a6 70bb 80a6 70bb 80a6 70bb 80a6 70bb
00000020: 80a6 70bb 80a6 70bb 80a6 70bb 80a6 70bb
00000030: 80a6 70bb 80a6 70bb 80a6 70bb 80a6 70bb
00000040: 80a6 70bb 80a6 70bb 80a6 70bb 80a6 70bb
00000050: 80a6 70bb 80a6 70bb 80a6 70bb 80a6 70bb
00000060: 80a6 70bb 80a6 70bb 80a6 70bb 80a6 70bb
00000070: 80a6 70bb 80a6 70bb 80a6 70bb 80a6 70bb
00000080: 80a6 70bb 80a6 70bb 80a6 70bb 80a6 70bb
00000090: 80a6 70bb 80a6 70bb 80a6 70bb 80a6 70bb
000000a0: 80a6 70bb 82a6 70bb 82a6 70bb 82a6 70bb
000000b0: 80a6 70bb 80a6 70bb 12a7 70bb 70ab 70bb
000000c0: b7ae 70bb f8a9 70bb 80a6 70bb 80a6 70bb
000000d0: 80a6 70bb 80a6 70bb 80a6 70bb 80a6 70bb
000000e0: 80a6 70bb 80a6 70bb 80a6 70bb 80a6 70bb
000000f0: fea4 70bb 59a6 70bb 80a6 70bb c9e7 70bb
00000100: 02b7 70bb 80a6 70bb 3ea5 70bb 719a 70bb
00000110: f19e 70bb e9a6 70bb 516d 70bb c9ff 6ebb
00000120: 2d4c 6fbb 8285 6ebb 7998 70bb 88ba 70bb
00000130: 15b6 70bb b8a7 70bb b23b 70bb c49f 70bb
00000140: 80a6 70bb 80a6 70bb 80a6 70bb 80a6 70bb
00000150: 80a6 70bb 80a6 70bb 80a6 70bb 80a6 70bb
00000160: 59a6 70bb 7aa6 70bb 80a6 70bb ecf7 70bb
00000170: 82a6 70bb c49d 70bb 7bc8 70bb a577 71bb
00000180: 6432 73bb b6e1 79bb 09e9 78bb 554e 76bb
00000190: 4aed 82bb 593e 8ebb c4aa 70bb b7b5 52bb
000001a0: aab9 56bb d548 73bb e2cd 71bb cfaf 70bb
000001b0: c6bd 70bb 80a6 70bb 80a6 70bb 80a6 70bb
000001c0: 80a6 70bb 80a6 70bb 80a6 70bb 80a6 70bb
000001d0: 80a6 70bb 10a6 70bb b9f2 6abb d9b3 65bb
000001e0: f51a 61bb 0164 0cbb 2282 ccba 2e62 d0ba
000001f0: 64b5 39bb bba1 73bb ca8e 80bb 9f53 76bb
00000200: 77cd acbb ed3c a1bb 3290 4ebb 6236 4fbb
00000210: 92a5 63bb 265b 79bb 5066 6fbb 888b 6fbb
00000220: b6ba 70bb b6a6 70bb 80a6 70bb 80a6 70bb
00000230: 80a6 70bb 80a6 70bb 80a6 70bb 248f 70bb
00000240: b17c 70bb 13b3 6ebb 8ddf 56bb 42a0 4cbb
00000250: c22b 34bb 0870 43ba 5d32 48ba dbd1 efba
00000260: 46e1 a1ba 9676 3ebb 0ba3 1bbb 351b 57bb
00000270: e992 d4bb 4a64 c5bb d54f a3bb fe5e cbbb
00000280: cc22 16bb 3c7a 38bb f405 7abb d40f 72bb
00000290: e48a 6fbb 09ac 70bb a9a7 70bb 80a6 70bb
000002a0: 80a6 70bb 80a6 70bb 80a6 70bb 75d2 6fbb
000002b0: 7887 6fbb f2c6 63bb 8b87 4fbb 438b 4fbb
000002c0: e4cf 39bb ea85 8dba 3af4 6dbb 2b8b 93bb
000002d0: f785 5bbb c689 a0ba f290 1339 056f 9539
000002e0: f406 d9ba 83e1 2bbb de6b 6ebb 1336 83bb
000002f0: 14c0 c3ba c517 2abb ef2b 5dbb 06b1 7cbb
00000300: 7db3 6cbb 3c72 70bb 2aab 70bb 41a6 70bb
00000310: 80a6 70bb 80a6 70bb 86a6 70bb 6ba4 6fbb
00000320: 75cc 6fbb 3699 70bb d95c 8bbb 67f4 3fbb
00000330: 2da4 96ba 2ab5 b4ba b9a2 8dbb c2a3 71bb
00000340: a506 7dba 17b3 2639 6a08 fe3a 144a 723b
00000350: 8cae 723a e1ed 1b39 ce40 8f3a eae3 92ba
00000360: 7ee4 f1ba f1d0 3dbb 7cb6 96bb 612a 89bb
00000370: ba03 72bb d425 71bb 1f9e 70bb 7aa6 70bb
00000380: 80a6 70bb 6ba7 70bb 423d 73bb 6f58 73bb
00000390: d1d9 73bb fa4f 82bb d32f 19bb 9784 2cba
000003a0: 9c42 b73a 18ca f93a c13e 7bba 0fba 3bbb
000003b0: 78bc a33a 9602 2b3b 5906 7e3b 1043 8b3a
000003c0: ca14 7e3a 1818 963a 6f73 033b 5f57 ca3a
000003d0: 11e0 e8ba 5398 37bb 4e74 8cbb c9fa 82bb
000003e0: d981 71bb a55e 6dbb 1aa0 70bb 80a6 70bb
000003f0: 80a6 70bb 80a6 70bb 298e 73bb a0cb 73bb

exp_avg_sq f4 [32, 784]
0.00021297249 0.00021297249 0.00021297249 0.00021297249 0.00021297249 0.00021297249 0.00021297249 0.00021297249
0.00021297249 0.00021297249 0.00021297249 0.00021297249 0.00021297282 0.00021297329 0.00021297249 0.00021297249
0.00021297249 0.00021297249 0.00021297249 0.00021297249 0.00021297249 0.00021297249 0.00021297249 0.00021297249
0.00021297249 0.00021297249 0.00021297249 0.00021297249 0.00021297249 0.00021297249 0.00021297249 0.00021297249
0.00021297249 0.00021297249 0.00021297268 0.00021297288 0.00021297253 0.00021295641 0.0002128481 0.00021299475
0.00021309707 0.00021290632 0.00021273649 0.00021283732 0.00021288048 0.00021297242 0.00021295251 0.0002129674
0.00021297234 0.00021298062 0.00021298311 0.00021297333 0.00021297249 0.00021297249 0.00021297249 0.00021297249
0.00021297249 0.00021297249 0.00021297249 0.00021297263 0.0002129727 0.00021297262 0.00021297275 0.00021316938
0.00021303335 0.00021289953 0.00021270836 0.00021262837 0.00021257126 0.00021238762 0.00021250118 0.00021273832
0.00021267401 0.00021260724 0.0002125423 0.00021254462 0.00021260773 0.00021274226 0.00021296412 0.0002129638
0.00021297748 0.00021297247 0.00021297249 0.00021297249 0.00021297249 0.00021297249 0.00021297243 0.0002129716
0.000212951 0.00021296438 0.00021272365 0.00021292096 0.00021263752 0.00021225528 0.00021184399 0.00020912557
0.00020683766 0.00020664437 0.00020630093 0.0002057171 0.00020675728 0.00020703442 0.00021103947 0.00021089407
0.00021083026 0.0002116015 0.00021234588 0.00021281431 0.0002130065 0.0002128574 0.00021294989 0.00021297249
0.00021297249 0.00021297249 0.00021297249 0.0002129667 0.00021291822 0.00021293743 0.00021255591 0.00021217842
0.00021056886 0.00020862384 0.00020399388 0.00019664614 0.00019118637 0.00019078336 0.00018785613 0.00018009178
0.0001820426 0.00019149085 0.00020190942 0.00020482129 0.00020629339 0.00020929077 0.00021148576 0.00021240623
0.00021252969 0.00021296837 0.00021305762 0.00021297624 0.00021297249 0.00021297249 0.00021296901 0.00021285766
0.00021278262 0.00021268272 0.00021172735 0.00020902474 0.00020548685 0.00019723644 0.00018846877 0.00017807692
0.00017149869 0.0001630778 0.00015200162 0.00015126102 0.0001567663 0.00016523864 0.00017698886 0.00019300461
0.00019787153 0.00020316368 0.00020875855 0.00021306753 0.00021247817 0.00021301174 0.00021301476 0.00021297624
0.00021297249 0.00021294037 0.00021252116 0.00021257269 0.00021177309 0.00020960553 0.00020589806 0.00020161697
0.00019096736 0.00017728018 0.00016631649 0.00015720323 0.00014704475 0.00013882572 0.00013756903 0.00013693798
0.00013905104 0.00014400901 0.0001560106 0.00017016107 0.00017909384 0.00018742468 0.00019908103 0.00020725753
0.00021103212 0.00021250569 0.00021304784 0.00021312897 0.00021297252 0.00021254481 0.00021232787 0.00021219577
0.00021004445 0.00020889546 0.00020372067 0.00018868051 0.0001771666 0.00016533944 0.00015394799 0.00014430768
0.00013706612 0.00013550528 0.00013296184 0.00013891884 0.00014210274 0.00013188939 0.00014555326 0.00016257184
0.00017525104 0.00018014939 0.00019370577 0.00020197919 0.00020933176 0.00021134524 0.00021326664 0.00021304649
0.00021298362 0.000212977 0.00021249069 0.00021228884 0.00021072435 0.00020637146 0.0001981366 0.00018203614
0.00017061608 0.00015904113 0.00015633719 0.00014979897 0.00014453552 0.00014035583 0.00013967961 0.00014890158
0.00014109316 0.00013164824 0.00014791446 0.00016283491 0.00017265751 0.00018441388 0.00019321684 0.00019793815
0.0002081242 0.00021092496 0.00021302096 0.00021298054 0.00021297242 0.00021329084 0.00021323415 0.00021350381
00000000: 5e51 5f39 5e51 5f39 5e51 5f39 5e51 5f39
00000010: 5e51 5f39 5e51 5f39 5e51 5f39 5e51 5f39
00000020: 5e51 5f39 5e51 5f39 5e51 5f39 5e51 5f39
00000030: 7551 5f39 9551 5f39 5e51 5f39 5e51 5f39
00000040: 5e51 5f39 5e51 5f39 5e51 5f39 5e51 5f39
00000050: 5e51 5f39 5e51 5f39 5e51 5f39 5e51 5f39
00000060: 5e51 5f39 5e51 5f39 5e51 5f39 5e51 5f39
00000070: 5e51 5f39 5e51 5f39 5e51 5f39 5e51 5f39
00000080: 5e51 5f39 5e51 5f39 6b51 5f39 7951 5f39
00000090: 6151 5f39 0d4d 5f39 fa2f 5f39 5857 5f39
000000a0: cf72 5f39 9b3f 5f39 0412 5f39 152d 5f39
000000b0: ab38 5f39 5951 5f39 014c 5f39 0050 5f39
000000c0: 5451 5f39 8d53 5f39 3854 5f39 9851 5f39
000000d0: 5e51 5f39 5e51 5f39 5e51 5f39 5e51 5f39
000000e0: 5e51 5f39 5e51 5f39 5e51 5f39 6851 5f39
000000f0: 6d51 5f39 6751 5f39 7051 5f39 3886 5f39
00000100: b461 5f39 c83d 5f39 770a 5f39 fef4 5e39
00000110: aae5 5e39 5eb4 5e39 dad2 5e39 8212 5f39
00000120: 3f01 5f39 52ef 5e39 e4dd 5e39 83de 5e39
00000130: 74ef 5e39 9113 5f39 1f4f 5f39 094f 5f39
00000140: b552 5f39 5d51 5f39 5e51 5f39 5e51 5f39
00000150: 5e51 5f39 5e51 5f39 5a51 5f39 2151 5f39
00000160: 994b 5f39 314f 5f39 920e 5f39 8943 5f39
00000170: 73f7 5e39 d890 5e39 7022 5e39 b848 5b39
00000180: 90e2 5839 adae 5839 7c52 5839 c3b5 5739
00000190: fccc 5839 6117 5939 7a4a 5d39 7223 5d39
000001a0: 5112 5d39 58e1 5d39 2aa9 5e39 e826 5f39
000001b0: 7f5a 5f39 7932 5f39 4d4b 5f39 5e51 5f39
000001c0: 5e51 5f39 5e51 5f39 5e51 5f39 d04f 5f39
000001d0: cd42 5f39 f547 5f39 8be1 5e39 367c 5e39
000001e0: 26cc 5c39 09c2 5a39 31e7 5539 cc32 4e39
000001f0: 3379 4839 050d 4839 3ffb 4439 05d7 3c39
00000200: b0e2 3e39 efca 4839 a6b7 5339 4cc5 5639
00000210: 7650 5839 1075 5b39 47c2 5d39 5db9 5e39
00000220: 81da 5e39 4350 5f39 3868 5f39 6052 5f39
00000230: 5e51 5f39 5e51 5f39 6f50 5f39 8b32 5f39
00000240: 661e 5f39 9503 5f39 2103 5e39 a72d 5b39
00000250: f577 5739 41d1 4e39 b39f 4539 29ba 3a39
00000260: 54d4 3339 ddff 2a39 a062 1f39 d29b 1e39
00000270: a261 2439 e943 2d39 1696 3939 4861 4a39
00000280: bc7b 4f39 5608 5539 32e6 5a39 e16a 5f39
00000290: adcc 5e39 e75b 5f39 b75c 5f39 6052 5f39
000002a0: 5e51 5f39 bf48 5f39 37d8 5e39 0ce6 5e39
000002b0: 680f 5e39 8ec9 5b39 57e6 5739 2569 5339
000002c0: 693e 4839 49e4 3939 3e65 2e39 ecd6 2439
000002d0: 0630 1a39 bf91 1139 6840 1039 0297 0f39
000002e0: 3bce 1139 2001 1739 c796 2339 446d 3239
000002f0: 23cb 3b39 6e87 4439 68c0 5039 4553 5939
00000300: 8148 5d39 10d4 5e39 9865 5f39 5f7b 5f39
00000310: 6051 5f39 90de 5e39 54a4 5e39 de80 5e39
00000320: 613f 5c39 f30a 5b39 da9d 5539 8ad8 4539
00000330: ccc5 3939 f85e 2d39 196d 2139 4c51 1739
00000340: 68b9 0f39 6c16 0e39 ac6b 0b39 beaa 1139
00000350: 6a01 1539 ca4b 0a39 a89f 1839 0c78 2a39
00000360: 98c3 3739 7ce6 3c39 7f1d 4b39 60ca 5339
00000370: 1180 5b39 8e9c 5d39 54a0 5f39 3b65 5f39
00000380: 5b54 5f39 9452 5f39 09d0 5e39 da99 5e39
00000390: e3f5 5c39 6b65 5839 e3c2 4f39 f4e0 3e39
000003a0: 68e7 3239 47c4 2639 72ee 2339 5b13 1d39
000003b0: 758e 1739 7b2c 1339 f676 1239 7722 1c39
000003c0: 68f2 1339 0e0b 0a39 7c19 1b39 aabe 2a39
000003d0: 660b 3539 395f 4139 409a 4a39 9e8d 4f39
000003e0: ea3b 5a39 bd2b 5d39 615e 5f39 8753 5f39
000003f0: 5951 5f39 d3a6 5f39 9b97 5f39 fedf 5f39

exp_avg f4 [32]
0.0036720335 -0.001763131 6e-45 6e-45 6e-45 -0.0014906541 6e-45 -0.0031558687
0.0048888703 6e-45 6e-45 6e-45 -0.0016135599 6e-45 6e-45 -0.0021331252
0.00064198294 6e-45 6e-45 6e-45 0.0018596349 6e-45 6e-45 -0.0007240295
6e-45 6e-45 -0.002534468 -0.0009298823 -0.0023128751 6e-45 -0.002951923 6e-45
00000000: 80a6 703b dc18 e7ba 0400 0000 0400 0000
00000010: 0400 0000 0d62 c3ba 0400 0000 b1d2 4ebb
00000020: d132 a03b 0400 0000 0400 0000 0400 0000
00000030: 167e d3ba 0400 0000 0400 0000 e7cb 0bbb
00000040: bf4a 283a 0400 0000 0400 0000 0400 0000
00000050: febe f33a 0400 0000 0400 0000 cccc 3dba
00000060: 0400 0000 0400 0000 5119 26bb 58c3 73ba
00000070: 9b93 17bb 0400 0000 0d75 41bb 0400 0000

exp_avg_sq f4 [32]
0.00021297249 0.00019831504 5.615451e-16 3.2209722e-15 4.1784514e-16 0.00030163638 2.1932258e-15 0.00016175017
0.0001479212 7.564769e-16 3.7335328e-16 8.32006e-15 0.00017341375 1.5396743e-14 2.39329e-16 0.00016603373
0.00023991916 5.5924477e-19 3.7198134e-15 5.3144045e-17 0.00025860712 2.1161245e-14 2.9321e-16 0.00024428315
8.935261e-16 1.9058285e-14 0.0001926048 0.00016602526 0.00017020229 1.1858845e-15 0.000118609765 2.4729454e-14
00000000: 5e51 5f39 caf2 4f39 b7da 2126 7318 6827
00000010: 0fdf f025 f324 9e39 e009 1e27 7b9b 2939
00000020: 4b1b 1b39 250a 5a26 3839 d725 81e1 1528
00000030: 66d6 3539 79ae 8a28 baf6 8925 5719 2e39
00000040: cf92 7b39 570f 2521 3905 8627 6a15 7524
00000050: a995 8739 829a be28 2906 a925 2113 8039
00000060: 4bc5 8026 6aa9 ab28 f5f5 4939 1117 2e39
00000070: 5478 3239 6ae7 aa26 22be f838 3dbe de28

exp_avg f4 [10, 32]
-0.018475696 0.0028624237 -6e-45 6e-45 6e-45 -0.008118209 6e-45 -0.0055745053
-0.010377563 -6e-45 6e-45 6e-45 0.00052111235 -6e-45 6e-45 -0.009194512
-0.016570939 6e-45 -6e-45 6e-45 0.0009505857 6e-45 6e-45 -0.017776353
-6e-45 6e-45 -0.0076088733 -0.0035014162 -0.010538374 6e-45 -0.0026119626 6e-45
-0.009098344 6.991387e-05 -6e-45 6e-45 -6e-45 0.0015950388 6e-45 -0.015812535
0.0009905236 6e-45 6e-45 6e-45 -0.0021101187 6e-45 6e-45 -0.021105474
0.0081890775 6e-45 6e-45 6e-45 -0.0069061145 6e-45 6e-45 -0.01022393
6e-45 6e-45 0.0018417314 0.0043632663 0.004557153 6e-45 0.012547906 6e-45
0.009695562 -0.039472748 -6e-45 6e-45 -6e-45 0.009962386 -6e-45 -0.025693512
-0.056961037 6e-45 6e-45 -6e-45 -0.030835897 6e-45 -6e-45 -0.02695629
-0.017755184 6e-45 6e-45 6e-45 -0.06190802 -6e-45 6e-45 -0.019233523
6e-45 -6e-45 -0.019872714 0.012921098 -0.08372324 6e-45 -0.039841305 -6e-45
0.0358248 0.006621892 6e-45 6e-45 6e-45 -0.03634296 -6e-45 -0.037756864
0.019106999 -6e-45 -6e-45 -6e-45 0.01665456 -6e-45 -6e-45 0.003640415
-0.061702423 6e-45 6e-45 6e-45 -0.020113086 6e-45 -6e-45 0.018703481
6e-45 -6e-45 0.004281953 0.009175457 0.009949462 6e-45 0.028109819 6e-45
-0.18260536 -0.03387137 -6e-45 6e-45 6e-45 0.0017326557 -6e-45 -0.20641488
-0.14235741 -6e-45 6e-45 6e-45 0.006230384 6e-45 -6e-45 -0.049943227
-0.13610399 -6e-45 6e-45 -6e-45 -0.040730193 6e-45 6e-45 -0.045375504
6e-45 -6e-45 -0.073852204 0.0048730704 -0.16964631 -6e-45 -0.0053995913 6e-45
-0.039952505 0.0024098025 -6e-45 -6e-45 6e-45 0.03213894 6e-45 -0.030069811
-0.06418919 6e-45 6e-45 6e-45 0.013036428 -6e-45 6e-45 -0.072412424
0.062087882 6e-45 6e-45 6e-45 0.018600121 6e-45 6e-45 0.0049902583
6e-45 6e-45 -0.011967517 -0.03229116 0.014092874 -6e-45 0.02022779 6e-45
0.0423891 -0.0008489169 6e-45 -6e-45 6e-45 0.036471754 -6e-45 0.16660011
0.12295692 -6e-45 -6e-45 -6e-45 -0.0009859643 6e-45 -6e-45 0.14707784
8.163552e-05 6e-45 6e-45 -6e-45 0.013571514 -6e-45 6e-45 0.06663343
-6e-45 -6e-45 0.0435923 0.016170427 0.03545701 6e-45 0.008297273 -6e-45
-3.0770334e-05 0.03691067 -6e-45 6e-45 -6e-45 -0.060023643 6e-45 0.010063598
0.037615027 -6e-45 -6e-45 -6e-45 0.011104492 6e-45 -6e-45 0.021357795
0.041996904 6e-45 6e-45 6e-45 0.077268586 -6e-45 6e-45 -0.017803915
6e-45 -6e-45 0.02303844 -0.0069331666 0.07581132 6e-45 0.013385315 -6e-45
00000000: 585a 97bc 8097 3b3b 0400 0080 0400 0000
00000010: 0400 0000 3d02 05bc 0400 0000 57aa b6bb
00000020: a706 2abc 0400 0080 0400 0000 0400 0000
00000030: 429b 083a 0400 0080 0400 0000 94a4 16bc
00000040: c7bf 87bc 0400 0000 0400 0080 0400 0000
00000050: ba30 793a 0400 0000 0400 0000 b79f 91bc
00000060: 0400 0080 0400 0000 db53 f9bb 0478 65bb
00000070: 25a9 2cbc 0400 0000 762d 2bbb 0400 0000
00000080: 3811 15bc b99e 9238 0400 0080 0400 0000
00000090: 0400 0080 9f10 d13a 0400 0000 4a89 81bc
000000a0: 75d4 813a 0400 0000 0400 0000 0400 0000
000000b0: eb49 0abb 0400 0000 0400 0000 63e5 acbc
000000c0: 7b2b 063c 0400 0000 0400 0000 0400 0000
000000d0: b04c e2bb 0400 0000 0400 0000 4582 27bc
000000e0: 0400 0000 0400 0000 4066 f13a bbf9 8e3b
000000f0: 2c54 953b 0400 0000 bb95 4d3c 0400 0000
00000100: 22da 1e3c 2dae 21bd 0400 0080 0400 0000
00000110: 0400 0080 4739 233c 0400 0080 337b d2bc
00000120: fa4f 69bd 0400 0000 0400 0000 0400 0080
00000130: 909b fcbc 0400 0000 0400 0080 70d3 dcbc
00000140: 5273 91bc 0400 0000 0400 0000 0400 0000
00000150: 4493 7dbd 0400 0080 0400 0000 9f8f 9dbc
00000160: 0400 0000 0400 0080 1acc a2bc 03b3 533c
00000170: 1777 abbd 0400 0000 a330 23bd 0400 0080
00000180: 07bd 123d 75fc d83b 0400 0000 0400 0000
00000190: 0400 0000 5bdc 14bd 0400 0080 f1a6 1abd
000001a0: 4886 9c3c 0400 0080 0400 0080 0400 0080
000001b0: 256f 883c 0400 0080 0400 0080 0794 6e3b
000001c0: aebb 7cbd 0400 0000 0400 0000 0400 0000
000001d0: 33c4 a4bc 0400 0000 0400 0080 0b38 993c
000001e0: 0400 0000 0400 0080 a04f 8c3b a854 163c
000001f0: 1103 233c 0400 0000 9046 e63c 0400 0000
00000200: e6fc 3abe b5bc 0abd 0400 0080 0400 0000
00000210: 0400 0000 471a e33a 0400 0080 6c5e 53be
00000220: 24c6 11be 0400 0080 0400 0000 0400 0000
00000230: 4028 cc3b 0400 0000 0400 0080 4591 4cbd
00000240: d85e 0bbe 0400 0080 0400 0000 0400 0080
00000250: b4d4 26bd 0400 0000 0400 0000 aadb 39bd
00000260: 0400 0000 0400 0080 d33f 97bd 47ae 9f3b
00000270: c3b7 2dbe 0400 0080 0eef b0bb 0400 0000
00000280: 3da5 23bd c7ed 1d3b 0400 0080 0400 0080
00000290: 0400 0000 1fa4 033d 0400 0000 f754 f6bc
000002a0: 9f75 83bd 0400 0000 0400 0000 0400 0000
000002b0: be96 553c 0400 0080 0400 0000 f74c 94bd
000002c0: dd4f 7e3d 0400 0000 0400 0000 0400 0000
000002d0: 485f 983c 0400 0000 0400 0000 5285 a33b
000002e0: 0400 0000 0400 0000 6813 44bc bc43 04bd
000002f0: cce5 663c 0400 0080 c0b4 a53c 0400 0000
00000300: 31a0 2d3d d989 5eba 0400 0000 0400 0080
00000310: 0400 0000 6863 153d 0400 0080 3899 2a3e
00000320: d6d0 fb3d 0400 0080 0400 0080 0400 0080
00000330: 793b 81ba 0400 0000 0400 0080 939b 163e
00000340: bc33 ab38 0400 0000 0400 0000 0400 0080
00000350: 0e5b 5e3c 0400 0080 0400 0000 1c77 883d
00000360: 0400 0080 0400 0080 d78d 323d d877 843c
00000370: 5f3b 113d 0400 0000 49f1 073c 0400 0080
00000380: 650f 01b8 a52f 173d 0400 0080 0400 0000
00000390: 0400 0080 5adb 75bd 0400 0000 cae1 243c
000003a0: 3712 1a3d 0400 0080 0400 0080 0400 0080
000003b0: 9def 353c 0400 0000 0400 0080 8bf6 ae3c
000003c0: f204 2c3d 0400 0000 0400 0000 0400 0000
000003d0: fe3e 9e3d 0400 0080 0400 0000 84d9 91bc
000003e0: 0400 0000 0400 0080 1cbb bc3c 9e2f e3bb
000003f0: f742 9b3d 0400 0000 154e 5b3c 0400 0080

exp_avg_sq f4 [10, 32]
0.037627876 0.0020281163 6.2900925e-17 1.8021989e-16 1.123546e-15 0.014522401 6.9896223e-15 0.031174531
0.053513672 2.4304384e-15 2.4252328e-15 3.7983007e-15 0.0030987014 1.662712e-16 2.9712368e-15 0.055210736
0.04593445 3.096305e-17 6.4849385e-15 1.3314336e-17 0.0041419086 6.699759e-14 1.7065226e-20 0.051727116
1.4826078e-14 1.4634522e-14 0.0285111 0.011616486 0.040557455 2.8401372e-17 0.0033203275 6.2812207e-15
0.02208663 0.007836793 8.325634e-22 3.5491827e-16 1.4028695e-15 0.0075930543 6.3412355e-15 0.090927586
0.01003063 2.630132e-15 8.06576e-16 1.1092167e-14 0.017626844 7.2979174e-17 2.2818561e-15 0.024001025
0.0130854435 1.229984e-17 3.4368076e-15 2.0541773e-17 0.025880586 7.0658154e-14 2.6502442e-20 0.017175306
2.1807141e-16 1.7301536e-15 0.0046893447 0.046811976 0.0053531174 1.12068845e-17 0.018059267 1.0729256e-14
0.030329423 0.019117126 8.1444256e-17 2.9584389e-16 1.1847495e-14 0.03611653 9.035785e-15 0.12567873
0.077802315 1.6498363e-15 5.1140424e-16 3.1116145e-14 0.03743778 5.4655254e-17 1.7536604e-15 0.05528606
0.07120871 6.900453e-18 2.464671e-15 1.8647351e-17 0.036698468 2.182813e-13 1.2076818e-19 0.09417268
2.6540242e-16 9.642113e-15 0.016421204 0.016743878 0.068732366 7.161397e-18 0.06608635 9.348119e-15
0.04240327 0.009232061 4.487811e-16 5.7886973e-16 3.389886e-18 0.06900201 5.8831923e-15 0.20190255
0.10844361 2.8149243e-15 1.8650164e-15 1.6063651e-14 0.01638024 7.823699e-16 2.7055577e-15 0.05167387
0.20583199 2.1531037e-17 2.591534e-15 3.2555864e-17 0.043772165 8.331945e-14 1.7052344e-18 0.09800257
4.287893e-16 5.3770268e-14 0.02660092 0.08231234 0.026479755 1.797174e-17 0.07574268 1.0013576e-14
0.07227666 0.016828103 1.6566685e-16 2.3896425e-16 2.4656126e-16 0.00019220599 4.8195688e-15 0.17309138
0.08107042 5.157466e-15 3.210012e-16 3.745676e-16 0.005847786 4.2105733e-17 1.498889e-15 0.022580551
0.13054132 1.2935091e-15 2.060619e-15 5.4078813e-16 0.022460097 1.6646567e-14 2.1221252e-20 0.010128208
1.6322038e-16 8.699749e-15 0.05931786 0.02771934 0.16050212 3.698619e-16 0.0042711096 4.504302e-15
0.06698582 0.004685188 6.243044e-16 3.849941e-15 5.6772574e-16 0.06693517 5.7646767e-15 0.2081219
0.09343712 2.1462705e-15 1.4559612e-15 5.446755e-15 0.0072182487 5.205736e-16 2.9246214e-15 0.10406898
0.16988975 1.744626e-17 3.9133e-15 6.1784622e-18 0.01611826 5.1283034e-14 8.3613815e-21 0.06129701
1.8014255e-16 1.1090475e-14 0.052914113 0.09264899 0.07066704 1.2469823e-16 0.0256636 5.187337e-15
0.03398156 0.010356514 2.5824655e-17 5.3135324e-16 1.6567713e-16 0.0064785713 7.86058e-15 0.10672685
0.08281375 9.982754e-16 6.0512318e-15 4.5842416e-14 0.009223078 5.6701636e-17 4.1036266e-16 0.09464382
0.013670534 7.074626e-18 5.382049e-14 1.7380277e-16 0.0094675375 3.745535e-14 1.0335186e-20 0.026911689
6.895191e-18 1.5838534e-14 0.03848648 0.014874426 0.07856466 6.7399963e-18 0.0012924712 3.0770323e-15
0.058596354 0.008691271 1.824385e-16 6.5273947e-16 9.130374e-19 0.019778859 1.1346454e-15 0.05397706
0.040776562 1.5228795e-15 4.8628273e-16 4.5411016e-15 0.02458339 8.478179e-17 1.9509077e-15 0.010035048
0.15094614 1.7724239e-17 3.9642586e-15 4.4303155e-17 0.05840376 2.039485e-14 3.480736e-21 0.015506462
2.625909e-16 4.12661e-15 0.032891992 0.032265086 0.076594934 1.4215995e-17 0.05277816 3.3655536e-14
00000000: b01f 1a3d 25ea 043b 270a 9124 86c7 4f25
00000010: 88eb a126 5def 6d3c e3d3 fb27 bb61 ff3c
00000020: 2731 5b3d ad21 2f27 a6c1 2e27 24d9 8827
00000030: 9513 4b3b 99b2 3f25 a519 5627 a724 623d
00000040: c325 3c3d b8ca 0e24 00a5 e927 2d9b 7523
00000050: d9b8 873b 7bdd 9629 2f2d a11e d0df 533d
00000060: 9c8a 8528 e9d0 8328 1c90 e93c 1353 3e3c
00000070: 931f 263d 6cfa 0224 da99 593b 094e e227
00000080: 05ef b43c e465 003c 79a0 7b1c b198 cc25
00000090: c02c ca26 28cf f83b 9377 e427 3e38 ba3d
000000a0: 8357 243c 5f85 3d27 ce7a 6826 97d1 4728
000000b0: 2c66 903c 4d47 a824 d16c 2427 cc9d c43c
000000c0: 5464 563c 5ae4 6223 e9a5 7727 e476 bd23
000000d0: 8603 d43c a71b 9f29 f94e fa1e 3ab3 8c3c
000000e0: 526b 7b25 6757 f926 13a9 993b eabd 3f3d
000000f0: 3469 af3b 04bb 4e23 07f1 933c f647 4128
00000100: 6975 f83c 859b 9c3c 34cc bb24 da8a aa25
00000110: ed6c 5528 edee 133d 34c6 2228 edb1 003e
00000120: d256 9f3d 37c4 ed26 f966 1326 7922 0c29
00000130: 5c58 193d 890d 7c24 a6ba fc26 a373 623d
00000140: dfd5 913d f094 fe22 2899 3127 d0fd ab23
00000150: 2251 163d 4dc3 752a f193 0e20 9bdd c03d
00000160: 7cfe 9825 66b2 2d28 c385 863c 752a 893c
00000170: 8ec3 8c3d be1a 0423 4858 873d 9766 2828
00000180: 0daf 2d3d 1242 173c 335a 0126 0cd9 2626
00000190: 2321 7a22 ed50 8d3d dff6 d327 8bbf 4e3e
000001a0: af17 de3d 30d6 4a27 7b63 0627 42b0 9028
000001b0: da2f 863c b680 6126 bbf4 4227 fba7 533d
000001c0: 9fc5 523e b996 c623 5dbd 3a27 2e23 1624
000001d0: 714a 333d 659e bb29 efa5 fb21 92b5 c83d
000001e0: 222e f725 e628 7229 2cea d93c 5f93 a83d
000001f0: 12ec d83c 92c2 a523 fa1e 9b3d 7863 3428
00000200: c905 943d 17db 893c 3900 3f25 e6c0 8925
00000210: 0522 8e25 e78a 4939 ada4 ad27 de3e 313e
00000220: 4008 a63d 3ad1 b927 6a0b b925 6cec d725
00000230: c99e bf3b ad2d 4224 3e03 d826 d9fa b83c
00000240: a0ac 053e 106a ba26 b67b 1427 1fdf 1b26
00000250: 3dfe b73c 5ff0 9528 d76d c81e c9f0 253c
00000260: 272e 3c25 83b8 1c28 49f7 723d ab13 e33c
00000270: ab5a 243e fc35 d525 aaf4 8b3b da48 a227
00000280: dd2f 893d 3586 993b 89f1 3326 70b5 8a27
00000290: c4a2 2326 4e15 893d c2b1 cf27 e81d 553e
000002a0: f65b bf3d b4a7 1a27 7dd3 d126 733d c427
000002b0: 0f87 ec3b 8d0b 1626 bebd 5227 1e22 d53d
000002c0: 94f7 2d3e d1e9 a023 d2fd 8c27 edf1 e322
000002d0: 710a 843c 50f5 6629 29f1 1d1e 9312 7b3d
000002e0: b2b0 4f25 cac9 4728 78bc 583d c1be bd3d
000002f0: e2b9 903d 6cc4 0f25 783c d23c bde4 ba27
00000300: 4030 0b3d 5eae 293c be30 ee23 f326 1926
00000310: 4203 3f25 324a d43b 879a 0d28 9b93 da3d
00000320: 419a a93d dddd 8f26 c304 da27 b574 4e29
00000330: 651c 173c bdbe 8224 d78e ec25 9ed4 c13d
00000340: 60fa 5f3c fa80 0223 cd62 7229 8661 4825
00000350: bb1d 1b3c 14af 2829 e539 431e e775 dc3c
00000360: 3d63 fe22 2ca9 8e28 00a4 1d3d ddb3 733c
00000370: 82e6 a03d 77a9 f822 2368 a93a 3ab9 5d27
00000380: bb02 703d d565 0e3c 5756 5225 ac23 3c26
00000390: 94bd 8621 4607 a23c 0785 a326 0d17 5d3d
000003a0: 5305 273d 5678 db26 5529 0c26 459c a327
000003b0: 1b63 c93c 567e c324 e593 0c27 0b6a 243c
000003c0: a091 1a3e 2d7a a323 d5d3 8e27 ef4f 4c24
000003d0: c838 6f3d 53b3 b728 9d7f 831d d10e 7e3c
000003e0: 945f 9725 42ad 9427 c1b9 063d 6528 043d
000003f0: cedd 9c3d 921e 8323 e92d 583d 3192 1729

exp_avg f4 [10]
-0.00086811173 -0.0007560983 -0.004402952 0.0012814557 -0.010354532 -0.0015767685 0.008601197 0.0028652095
-0.0076022265 0.012812827
00000000: fe91 63ba e634 46ba a346 90bb 85f6 a73a
00000010: 0ea6 29bc 92ab ceba 09ec 0c3c 3dc6 3b3b
00000020: 191c f9bb e4ec 513c

exp_avg_sq f4 [10]
0.00030847924 0.0003343712 0.000684367 0.00084466464 0.0006502269 0.00089942245 0.0004334045 0.0005932955
0.0008495749 0.0007976314
00000000: 62bb a139 8b4e af39 1867 333a 7c6c 5d3a
00000010: fd73 2a3a 38c7 6b3a 913a e339 6387 1b3a
00000020: 02b6 5e3a 2318 513a
